5_Exploration_Techinques/data/model/target_net_simple.pkl (torch_old, 77147 bytes, 6 tensors)

feature_extraction.0.weight f4 [128, 16]
00000000: dad7 32be 5aef aabe 5a4c 023f 120d cfbe
00000010: 901c 923f 0601 1d3f 0456 233e 9427 3b3e
00000020: 1fa6 f0bd 7b16 d5be 611a 713f 4b31 143f
00000030: 7a56 91be baf5 87be f6e4 583d e8bd 26bf
00000040: d3c4 db3b 1a77 e83c 276a 263f a19a b93d
00000050: 2523 74be 007a b1be d55a 713e d8f5 e1be
00000060: 8313 6cbe 6004 a33d 66c0 4f3f 8cef 67be
00000070: 5758 27be bdf1 4cbe 3c17 0f3e 79a4 803d
00000080: d9de 2a3f 3e1e efbd 2479 a43d e633 1ebf
00000090: 5455 43bf 85d3 dd3d 76d2 3b3e 0169 8e3e
000000a0: 08f3 77be a43e 16be eef3 7a3e 0963 d53d
000000b0: aba4 8c3e a862 163f 2999 913e 8c6c bb3e
000000c0: f834 e93d ce60 f23e 5107 293f 9813 613e
000000d0: c910 533e ddb6 5ebe 9edf 1a3f fb80 0f3d
000000e0: ceec 84be edf2 43be 8c92 fe3c 7164 c8bd
000000f0: cbad 67be e546 31bd b8d9 74be 4f49 3f3d
00000100: c363 ff3e ecaf b53e df99 c3be 58cb b33d
00000110: e3ac ad3d 0f31 0b3e 8d2e 903d fd70 56bd
00000120: fd35 cf3e 9907 90be a44c 013f 42e0 793e
00000130: 1957 b5be 53c2 ccbd 5949 b03e bfca c5be
00000140: b445 07be 3b5d 71be 2461 933e d01f c0bd
00000150: e364 febe f671 6fbd ae0d 33be f61e 313e
00000160: 2ddd 373d eda3 163f accc e8bc ff6e 133e
00000170: 026b b5bd 1dbe 5a3d 4305 8a3e f708 803e
00000180: 111d bb3e 29e4 f8be 40aa ddbe b97a 23be
00000190: 1e78 e5be 3d17 df3e 702c 09bf 58c2 d03e
000001a0: 1c4e c7be b5ce cf3e c30a e7be d34e e53c
000001b0: a38c 65bd 5109 ffbd 3b38 a0be ef21 283e
000001c0: 6ea7 3c3e 35c7 983e 8965 bd3e 5469 0b3f
000001d0: 6db4 56be 0596 55be 4b15 243f d812 10be
000001e0: 6ae3 2f3f d165 ac3e eec0 df3e 03c5 b3bd
000001f0: bdc9 34bf 7dfd cfbc 318a d6be 2cf2 963e
00000200: ec4b 763e ce5d e93e 0c26 0f3d 2eb9 62be
00000210: d1c2 523e 6b4f 28be 068a 70be 5851 80bc
00000220: 80af fbbe 78e3 a6be 6835 e13d 6151 b33e
00000230: 9f66 8d3e d7c2 20bf 2169 a33e 8c75 21bf
00000240: 35bb 62bb 4232 b3be e56a 213e 922c 51be
00000250: 3f43 49bf d776 003d 0e57 6d3e 82a0 113d
00000260: 2bad 9ebe 8e63 9fbe 00b0 703d bfb0 45be
00000270: 2adf a93e a0d0 af3d 29ac d8bc d3ff af3d
00000280: a9df 1bbe e164 c6be 9b08 123f 978a b13d
00000290: 98f3 ebbe 012d c63e bc9b 063e 35ce c83c
000002a0: 29d7 623e 76c7 9a3e 837f 063f ce70 503e
000002b0: a748 253f 2cf7 9ebe 4999 79bd b6ef 55be
000002c0: 522e 8e3e 5ef3 13be a9b1 b8be d1d9 203d
000002d0: ada8 dbbe b336 7b3f 5562 11bf 8537 823e
000002e0: 6455 5ebe 11bf 0fbf 7f81 0c3f ff83 cdbd
000002f0: 9a64 e5be 6f71 1e3e d352 b8bd 7f4b 913e
00000300: 095b b13e 938c 45be 5229 72bd 9f54 afbd
00000310: ca47 dd3e 4884 82bd fba8 2cbd 46da ecbe
00000320: 49bb a0bd 263c 98be 1b67 ed3e 6e1b 60be
00000330: fab9 07bf cf05 22bd b178 83be 2b95 573e
00000340: 1b63 7abb 437c cabd bef6 83be 4948 06bf
00000350: 85c6 ac3d cbaf bdbe a3d6 97be 556c d23d
00000360: cf5f a6be a1ac 04be bb0c d4be f536 47be
00000370: eb3a 90be 59e2 343f 668e 2cbf 3c40 0bbe
00000380: ab92 01be ebe0 433e 28b2 45be d084 0a3e
00000390: 9098 1b3e a034 f4be 5601 30bf 1502 b53d
000003a0: 2796 2e3f 747f 1f3e c860 ca3e 68c4 8dbe
000003b0: cb74 04bf 019f 07be becf 44bf 7074 27bf
000003c0: 98fb f6be 3087 8a3e f517 25be f63e 193e
000003d0: 522e 8ebe b5f3 df3c 4ebd 113f 2be4 2cbe
000003e0: 58cc d33e 7701 e63e 64db d03e 0355 dd3e
000003f0: cd59 863e 8b1f efbe 5625 6e3f ee4b 27be
-0.17465153 -0.33385736 0.50897753 -0.4043966 1.1414967 0.61329687 0.15950781 0.18276817
-0.11750435 -0.41618714 0.94180876 0.57887715 -0.2838629 -0.26554662 0.05295273 -0.65133524
0.006706813 0.028377105 0.65005726 0.09062696 -0.23841532 -0.3466339 0.23569806 -0.44132876
-0.23054318 0.07959819 0.8115295 -0.22649974 -0.16342293 -0.20014091 0.13973707 0.06281371
0.6674629 -0.1167569 0.08030918 -0.6179794 -0.76302075 0.1083136 0.18342003 0.27814487
-0.24213803 -0.14672333 0.24507114 0.1041928 0.27469382 0.5874429 0.28437164 0.36606252
0.11387056 0.4733948 0.6602679 0.2198013 0.20611872 -0.21749444 0.6049746 0.035035115
-0.25961918 -0.19135638 0.031075738 -0.09784783 -0.2262489 -0.0432805 -0.23911178 0.046700772
0.498808 0.3548578 -0.38203332 0.08779019 0.08480241 0.13592933 0.07040129 -0.052353848
0.40470877 -0.28130797 0.5050757 0.24401954 -0.35418013 -0.09998002 0.3443096 -0.38631245
-0.13210183 -0.23570721 0.2878505 -0.09381068 -0.49686345 -0.05845829 -0.17485687 0.17296967
0.044888664 0.5884388 -0.028417908 0.1439781 -0.08858301 0.053403962 0.2695714 0.2500684
0.36545613 -0.48611572 -0.43293953 -0.15964784 -0.44818205 0.43572417 -0.5358343 0.40773273
-0.3892678 0.40587392 -0.45125398 0.027991688 -0.056042325 -0.12452949 -0.312929 0.16419195
0.18423244 0.29839483 0.36991528 0.5445759 -0.20967264 -0.20858009 0.6409499 -0.14069688
0.6870638 0.3367143 0.4370188 -0.087778114 -0.7062033 -0.025389427 -0.41902307 0.29481637
0.240524 0.4557938 0.034948394 -0.22140953 0.20582129 -0.16436546 -0.23490152 -0.015663788
-0.49157333 -0.3259542 0.109965146 0.35023025 0.27617356 -0.627973 0.31916144 -0.6306999
-0.0034596447 -0.3499928 0.15763433 -0.20427158 -0.78618234 0.031363335 0.2317774 0.035553463
-0.30991492 -0.31130642 0.058761597 -0.19305705 0.33178073 0.08584714 -0.02644928 0.085937165
-0.15222038 -0.3874884 0.5704438 0.08669012 -0.46084285 0.3870621 0.13145345 0.02451239
0.2215239 0.30230302 0.5253832 0.20355532 0.64563984 -0.31047952 -0.0609372 -0.20892224
0.27769715 -0.14448306 -0.36073044 0.039270226 -0.42902127 0.9813034 -0.5679067 0.25432983
-0.21712261 -0.5615092 0.54885095 -0.10034942 -0.44803315 0.15472959 -0.090001725 0.2837791
0.34639767 -0.19291906 -0.059121437 -0.08561062 0.43218833 -0.06372887 -0.04215334 -0.4626028
-0.07848222 -0.2973339 0.46367726 -0.21885464 -0.5301815 -0.03955632 -0.25678018 0.21052997
-0.0038206044 -0.09886982 -0.25774187 -0.5245405 0.08436302 -0.37048182 -0.29655942 0.10274569
-0.3249497 -0.12956478 -0.41415963 -0.19454558 -0.2816995 0.7065788 -0.6740478 -0.13598722
-0.12653606 0.19128768 -0.19306242 0.13527226 0.15194917 -0.476964 -0.6875204 0.08838288
0.68197864 0.15575963 0.39526963 -0.2768891 -0.5174071 -0.13244249 -0.7687949 -0.65412045
-0.48238826 0.27056265 -0.1612242 0.14965424 -0.27769715 0.027337888 0.5692948 -0.16883914
0.4136684 0.44922993 0.40792382 0.4322892 0.26240388 -0.46703753 0.9302572 -0.16337559

feature_extraction.0.bias f4 [128]
00000000: 4e31 183e 6c60 ae3d 63c2 363e 053a 4b3d
00000010: 674d 2fbe e5b2 27be ae5a c1bc 558b a9bd
00000020: 2c52 ea3d 9844 58bd dcad 48bd 94fb 243e
00000030: 1b26 e93d 2625 abbe cb08 aebe 423b 103d
00000040: 6dbe 99be 5a81 b5be bac2 613e f4aa dfbd
00000050: 8ece 323c b31a 84be 2528 333e e558 53be
00000060: 22b2 8bbe bdd4 e83d 76db 2abe 86d3 5ebe
00000070: 00d5 5bbd 2636 7cbe ed67 6c3c 8662 6cbe
00000080: 9216 e3bd 8da5 8fbe 43a6 17be 0c48 dcbc
00000090: f008 7fbe 2a6e 593e dec9 4e3d 2995 4b3d
000000a0: 2a80 f2bd 2b0a 2f3d a7dc ee3d 53ca d5be
000000b0: c8bf 283e e6ce 7e3e 8482 56be e458 94be
000000c0: 3538 9fbe 25b3 503e 6a10 55be c3b3 83be
000000d0: c025 82be 1308 40bd 5624 78be be88 2dbb
000000e0: f9f4 b7be 3785 e43d 5ef0 a03c 8766 93be
000000f0: f363 be3d 33b1 1ebe 6b42 d03d 6c84 81bd
00000100: 869c a5be 9b97 86be b05a 91be cf7e 203d
00000110: e462 f03c 3c41 933d 5166 883d f4b6 1e3d
00000120: 0723 ed3b 49c6 94be 5ca3 963d 899c 9f3d
00000130: 1d01 b1be 55ad 2f3d 1c19 8d3d fcd3 95bd
00000140: d7ac c53c 724c 6cbe ff94 0bbe 2a65 f63d
00000150: 8508 a43d d55d c53d e73e 51be d5c4 93be
00000160: 2813 58be 2a1e 71be 008c 653e bcc2 3ebe
00000170: 48a8 c8bd 8944 cebd e7cd e33d e001 3ebe
00000180: 2862 113d 7397 783d 2630 213e 1ff6 8abe
00000190: ed03 3bbd 2d1c 84bc ad63 11be 2d30 f8bd
000001a0: 3562 a6be 5d64 903d 1631 8f3d e233 743d
000001b0: fe24 90be e28d 87bd b170 80be 0ab5 57be
000001c0: 8d11 22be 9a0f e6bd 1762 44bc c9e6 02bc
000001d0: 3214 7bbe 940a 0b3c c0e6 2c3e 3a6a 273e
000001e0: d123 b13d 8418 92be 8099 0d3e 1021 96be
000001f0: c5da 53bd 3dd5 d03d a9a2 69bd 95a4 863c
0.14862558 0.08514485 0.1784759 0.04961588 -0.1711937 -0.16376837 -0.02360281 -0.082785286
0.11441454 -0.05279979 -0.04899393 0.16111594 0.11384221 -0.3342678 -0.33991084 0.035212763
-0.30028096 -0.3545025 0.22046939 -0.109212786 0.010913504 -0.2580162 0.17495783 -0.2063938
-0.27284342 0.113687016 -0.1668528 -0.21760377 -0.05366993 -0.24630031 0.014429075 -0.23084459
-0.11088289 -0.28055993 -0.14809518 -0.026889823 -0.24905753 0.2123343 0.050485484 0.049702797
-0.118408516 0.042734306 0.1166318 -0.41755924 0.16479409 0.24883613 -0.20948225 -0.28974068
-0.3109757 0.20380838 -0.20807043 -0.25723085 -0.25419426 -0.0468827 -0.24232611 -0.002647921
-0.35929087 0.11158221 0.019645866 -0.2878916 0.092964076 -0.15497284 0.10168918 -0.063240856
-0.3234598 -0.2628754 -0.28389502 0.039183434 0.02934403 0.07190177 0.0666014 0.038748696
0.0072368416 -0.2905753 0.07355377 0.077935286 -0.34571162 0.04288991 0.06889555 -0.073158234
0.024130268 -0.23076037 -0.13631056 0.12031014 0.080094375 0.09637038 -0.20434152 -0.28861108
-0.21101058 -0.23546663 0.22416687 -0.18628973 -0.09797722 -0.10071666 0.11123257 -0.18555403
0.035494 0.06069131 0.15741023 -0.271409 -0.04565804 -0.016126717 -0.1419818 -0.12118564
-0.324968 0.07050393 0.06991784 0.05961979 -0.28153223 -0.06618859 -0.25085977 -0.21065155
-0.15827008 -0.112334445 -0.011986277 -0.007989594 -0.24519423 0.008486409 0.16884899 0.16349116
0.086494096 -0.2853433 0.13828087 -0.293221 -0.051722307 0.10196922 -0.05703989 0.0164359

feature_extraction.3.weight f4 [128, 128]
00000000: 8ded dc3c 8a83 41be 3714 773d cac3 1dbd
00000010: 8cb5 7d3d e877 063e 4f74 8cbd 3468 0dbd
00000020: 7a54 52bd 98fc 153d cfec 623d 67a9 b5bc
00000030: c4fd cdbd 9284 cd3d 13b7 97bd 956e 833e
00000040: c768 3fbe da73 b6ba 2b06 e2bc eca0 b6bc
00000050: cb11 82be 20f7 2d3d e68e fa3c dab0 f13d
00000060: a402 23be c1e7 49bc 3ed9 c1bd 722f f5bd
00000070: aeb6 d4be 61ea 1dbe 0c21 d1bd 7feb 133e
00000080: e300 8fbd d145 1fbe 72ba a43d 7150 8a3c
00000090: fd95 50be f2ac 8cbe 0823 0abe f0fd f53d
000000a0: 7e98 683d 25ac adba ff4b fe3c 2cbb 0c3e
000000b0: e40d fabd f5bf a93d 407f c8bd 3c46 7dbd
000000c0: c03e dbbd 01fe 27bd dec5 81be 7e01 c4bc
000000d0: 8387 7cbd 3ad6 0ebe b9f1 c4bd 045c 8fbd
000000e0: d312 11be 20fa cfbd 86f8 903e 769b 4ebb
000000f0: 6698 6a3d fea4 90bd 5f5e 8abc 8ac3 9d3d
00000100: 9864 8cbd f9b7 143d f041 9fbd 10f8 f53d
00000110: c708 2d3c 9884 6ebd fd0b 9abb 75fd bebd
00000120: f714 72bd 9aec 273e f4d2 8ebd d3d0 34bd
00000130: 40e6 3fbe ed78 c5bd ac52 be3d bb90 42be
00000140: ddbe 143e b267 ae3d fdcd 083e 1ab0 8c3e
00000150: 7e51 11be 9e49 9fbe 9bd5 81be 2b57 a8bd
00000160: 8e4b 0c3e 850d 0a3d f1b2 a1be c5bb fcbd
00000170: bef0 023e ef43 6f3d d31f 85bd f737 8eb9
00000180: 6a20 63be a170 0dbc 1ac1 8dbc b5f0 4a3e
00000190: e445 c9bb 47a8 543c a4bc 2f3d 2e22 c43d
000001a0: 85b8 d3bd 7fd6 a7bc 3981 bf3d 1477 85bc
000001b0: c954 e33d 1159 703d 1532 393c e62e c83d
000001c0: 0145 e33d 6c4a 3f3d 741b 1e3e 73e1 ccbc
000001d0: a9e4 83bd 1812 dbbd ee0b eabd 3f92 1fbc
000001e0: 2127 973d 5a6c fd3d 67f6 823e 5dad 6d3d
000001f0: 01d2 2abd 3d4e 71bd 5d62 b3bd 04e4 d73d
00000200: 9a72 38bc 569a 8f3d b0c8 90bd 6ed7 403e
00000210: 6cab a63e 4715 cebd 04bd 18be 2b70 1a3e
00000220: 583f 9abe 7ec9 0d3c 9d34 6cbb fdeb 28be
00000230: 8f9e 4abe f36c 4a3d 6f96 0f3e f032 91bc
00000240: 9309 993d 25b7 e6bc c88e 59be 0627 8abc
00000250: b6fe 043e f64d bdbd 69e1 abbc 191b 38be
00000260: e5c9 a6bd e3d6 8fbe 98b6 1cbe bb75 d13c
00000270: a9d4 aabe 3a18 79bc 3c83 15bc c737 9bbd
00000280: d375 c8bd 2410 2d3e 5b28 d43d e7ad 4cbd
00000290: 4a50 32be 5890 d9bc 6700 123e cddf 233e
000002a0: f54c a0bd 4e6d cd3a 5f08 03be 6103 21bc
000002b0: 6ec1 73be 4ecf c53d 7809 57bc 68be 5cbd
000002c0: 4c9d 93bd 41a6 efbd 3098 963e 057b a3bd
000002d0: 8b4c 153d 4179 aa3b fb76 163d ff3f 4dbe
000002e0: 127f bbbb 8954 2abd 7215 b1bd 8728 503c
000002f0: d39a 1f3e 4665 49bd 4b16 84bd 1ee0 b7bd
00000300: 0a06 0ebd 2e70 333e ef2a 8a3d aee6 f2bc
00000310: 2d46 e1bc 3039 ea3a b4e5 abbd 014c 24be
00000320: 975b 8ebd fa41 0a3e 569e 06be 8b12 cebd
00000330: 2c26 1ebe a8eb e23d f585 23bd ba82 fabc
00000340: 4da2 27be 635d 843d 399d a7be 0b82 0abe
00000350: 6e9d 39be c644 843d 7b67 0abb f860 97be
00000360: 0e1d b8bd 2f9f 993d e374 173d 93ad df3d
00000370: 47dc 4abd 6442 95bd 60cf 58be b0f4 6a3d
00000380: 2109 b83d 9efd 093d 16ed 7cbd a597 3e3d
00000390: 6837 663d b893 9a3d d7f5 1fbe 7b24 113d
000003a0: 296e 60bd da64 73bd b5ac e8bd 60ce d4bd
000003b0: 7351 993d 3697 f6bc 6596 a0bd 3598 ba3d
000003c0: 8bbe 1b3e c180 6fbe b995 7b3d cfa9 5e3d
000003d0: f07e 6e3c 4236 b1bd 3460 223b 7b87 8dbe
000003e0: d5d4 26bd acc6 96be e6a3 3dbe f41d 2cbe
000003f0: 51f9 b03c e232 80bd 56a5 b0bd 6331 03bf
0.026968742 -0.18897834 0.060322013 -0.038516797 0.061940715 0.13131678 -0.068581216 -0.034523204
-0.051350094 0.036617845 0.05540162 -0.022175504 -0.100581676 0.100350514 -0.074079655 0.25670305
-0.18692313 -0.0013920025 -0.027590832 -0.02229353 -0.254042 0.042472005 0.030585717 0.1180131
-0.15918976 -0.012323321 -0.09465264 -0.1197194 -0.41545624 -0.1542144 -0.10211381 0.14445303
-0.06982591 -0.15553977 0.08043374 0.01688406 -0.20369716 -0.27475697 -0.13489926 0.12011325
0.056786053 -0.0013250156 0.031042097 0.13743275 -0.12209681 0.08288566 -0.09789896 -0.06183456
-0.10705328 -0.04101372 -0.25346273 -0.023926493 -0.06165267 -0.13948908 -0.096164174 -0.069999725
-0.14167337 -0.101551294 0.28314608 -0.0031525767 0.057274245 -0.0706272 -0.016890703 0.07703312
-0.06855124 0.036308262 -0.077762485 0.12010205 0.010561175 -0.05823192 -0.004701136 -0.09325687
-0.059102025 0.1639885 -0.0697383 -0.044144463 -0.18740177 -0.096422054 0.09293112 -0.19000523
0.14525934 0.08515872 0.13359828 0.27478105 -0.14191243 -0.31110853 -0.2535828 -0.08219751
0.13700697 0.0337043 -0.31581834 -0.12340502 0.12787148 0.058414396 -0.065002106 -0.00027126048
-0.22180334 -0.00863281 -0.017303992 0.19818385 -0.006142365 0.012979574 0.04290451 0.09576832
-0.10337929 -0.020488022 0.09350819 -0.016292132 0.11100156 0.05867869 0.011303444 0.0977457
0.11097146 0.046701834 0.1544016 -0.025009846 -0.06440098 -0.106968105 -0.11428057 -0.009739458
0.0738051 0.12374182 0.25578615 0.05802666 -0.04170418 -0.058912504 -0.08758996 0.105415374
-0.011257792 0.07011859 -0.07069528 0.1883218 0.3255266 -0.10062652 -0.14915854 0.15081851
-0.30126452 0.0086539965 -0.0036042102 -0.16496272 -0.19787048 0.04942031 0.1402223 -0.017724484
0.07472529 -0.028163502 -0.21245873 -0.016864311 0.1298779 -0.092433855 -0.020981507 -0.17979087
-0.08143977 -0.28093633 -0.15304029 0.025568834 -0.33365372 -0.01520353 -0.009125527 -0.07578998
-0.09788098 0.16900688 0.1035926 -0.049970534 -0.1741344 -0.026558086 0.14257966 0.16003342
-0.078271784 0.0015672834 -0.12796162 -0.009827466 -0.23804256 0.09658681 -0.013124816 -0.053892523
-0.072077364 -0.11701632 0.29412985 -0.079824485 0.03644995 0.005202443 0.036734562 -0.20043944
-0.005721935 -0.041584525 -0.086466685 0.012704975 0.15586405 -0.049168848 -0.064495645 -0.08978294
-0.034673728 0.17523262 0.0674647 -0.029651012 -0.027499283 0.0017869826 -0.08393422 -0.16044618
-0.06951063 0.1350173 -0.13146338 -0.100621305 -0.15444249 0.11080104 -0.039922673 -0.030579913
-0.16370507 0.064631246 -0.3273714 -0.1352617 -0.18126461 0.0645843 -0.0021118808 -0.2956617
-0.08989917 0.07501065 0.036976706 0.109217785 -0.04952648 -0.07288054 -0.21172857 0.05736226
0.08986116 0.033689134 -0.06174954 0.04653134 0.056205183 0.07547706 -0.15621124 0.03543518
-0.054792557 -0.05942235 -0.11361066 -0.103909254 0.07486238 -0.0301014 -0.078411855 0.091110624
0.15209405 -0.2338896 0.061422084 0.05436116 0.014556631 -0.08652927 0.002477658 -0.27642426
-0.040730316 -0.2944845 -0.18519554 -0.16808301 0.021603258 -0.06259705 -0.08625285 -0.51247233

feature_extraction.3.bias f4 [128]
00000000: ce97 8c3e 383b 16be 1929 b63e f9a8 883e
00000010: ac1e 963e 293e 09be edb2 5bbe d3d3 983e
00000020: a834 5bbe 45ed 1bbe 5185 823e 1fdb 953e
00000030: 903e cf3c 1cf1 32be 85ee 6fbe 1831 fbbd
00000040: 2964 b73e 4fb2 8f3e 98d4 ae3e a0e1 b3bd
00000050: 201c b93e 222e 1e3e 6528 633e 33fa 9d3e
00000060: ccc2 13be 6111 b93e 76f6 3cbd 37ad 803e
00000070: 67cc b33d 2da0 843e c72d 923e fa6c 833e
00000080: 2e71 463e 73f5 6fbe 4694 8abd a499 da3e
00000090: cbe6 2a3e 780c 823e 5859 bb3e 1ada 863c
000000a0: 9a9b 823e c031 9fbe bea1 24bd cd57 8abe
000000b0: 883b 81be acce 90bd 2770 9d3e 91e2 203e
000000c0: 93ed 823e 4868 ac3d eab7 ab3e 928c e3bd
000000d0: f27b e8bd 2965 5abe 6244 ddbd dfc4 393e
000000e0: e0da 54be 9760 5a3e f905 933e 90e7 15be
000000f0: 9ebf 22be da61 a33e 319d 2abe 13ae c63e
00000100: 1f80 47be 921b 11bd 9aeb 753e e54d aa3e
00000110: e334 973e 2e35 bf3d 2255 943e 8f18 4b3d
00000120: 0b41 c33d f489 1abe e70b 903e 9f85 79be
00000130: 0545 443e 9b9f 4fbb 2532 083e 70bf 5dbe
00000140: 4916 b33e d20e 15be defe 35be e66e b33e
00000150: dd83 733e b0aa 803e 54f7 5abe 1798 86be
00000160: 27a1 4bbe 3397 ad3e c728 c03e 77f0 8a3e
00000170: c70e 22be ddca 2dbe c373 06be 0c3e 8e3e
00000180: d3c9 53be dda6 9d3e 0936 6dbe d362 563e
00000190: a91a 40be b2c7 7ebe a31e e2bb c784 363e
000001a0: 6250 cf3d 8299 3a3e afbd 6a3d 5561 633e
000001b0: 53ad 5e3e 250c 893d c022 15be f0c3 893e
000001c0: 665c ae3e 6831 443e d921 683e 26d4 76be
000001d0: 88c7 ae3e 804a 5ebe 2ba9 17be 45bd 6b3e
000001e0: be9b c5bd d18e 3abd 8bf5 173e 8d6b 49be
000001f0: bd81 883e 449c 92be 5569 3d3e db55 cb3e
0.27459568 -0.14671028 0.3557823 0.26691416 0.29320276 -0.13402618 -0.21454974 0.2984911
-0.21406806 -0.1522723 0.25492337 0.2926874 0.025298387 -0.17474788 -0.23430832 -0.12265223
0.35818604 0.28065726 0.3414657 -0.08783269 0.3615427 0.15447286 0.22183378 0.3085495
-0.14429778 0.36146072 -0.04613348 0.25132152 0.08779221 0.25903454 0.2855055 0.2566908
0.19379112 -0.23433475 -0.06766562 0.42695343 0.16689603 0.25400138 0.365916 0.01646142
0.2550934 -0.31092644 -0.040193312 -0.27020112 -0.2524073 -0.070706695 0.30749628 0.15711428
0.2557188 0.084183276 0.33538753 -0.11110796 -0.11351766 -0.21327652 -0.108040586 0.18141507
-0.20786619 0.21325909 0.28715494 -0.14639115 -0.15893409 0.31910592 -0.16661526 0.38804683
-0.19482468 -0.035426684 0.24015656 0.33262554 0.29532537 0.09336315 0.289712 0.049583968
0.0953389 -0.15091687 0.2813408 -0.24367379 0.19166954 -0.0031680826 0.13300379 -0.21655059
0.3497794 -0.14556435 -0.17773005 0.35045546 0.2378077 0.25130224 -0.2138341 -0.2628791
-0.19885693 0.33904418 0.3753111 0.27136585 -0.1582595 -0.16971917 -0.13130097 0.27781713
-0.20682459 0.3079137 -0.23165144 0.20936136 -0.1876017 -0.24880865 -0.006900625 0.17824088
0.10122754 0.18222621 0.057309803 0.22205098 0.21745805 0.066917695 -0.14564037 0.269073
0.3405487 0.19159472 0.22669162 -0.24104366 0.34136605 -0.21708107 -0.14810626 0.2302142
-0.09648846 -0.045546357 0.14839761 -0.19669934 0.26661482 -0.28634846 0.18497212 0.3971394

fc_q.weight f4 [2, 128]
00000000: 8056 09bb 9743 52be ccfc a3ba e035 93bb
00000010: 587f 07bb 7f0d d3bb 1a79 a5bd 77be dbba
00000020: 5474 9b3b 261d ffbb 5832 463a 7164 e4ba
00000030: 7f2b 9c3b a2a4 e139 6817 23bd c0d6 8aba
00000040: 47de 83ba 343c 873b 8e85 12bb 8920 18bb
00000050: 0ebf f2ba 6cd4 8bbb b92a a4ba 92fd d6ba
00000060: 4e59 88be cbcc 13bb cfbf 92bd 7537 b3ba
00000070: d5f1 febb 7a94 19bc 9c82 b6bb fe56 363a
00000080: d7f8 1f3d b27d 82be d8d4 4bbe bd85 9eba
00000090: c0a8 1e3a e8ae 23ba a558 adba b366 cabc
000000a0: d75b 123d 3ac9 c1bd 981a 1d3b 21e8 b0be
000000b0: 1616 32be 6285 b43a e8fe 2ebb 06a0 ba3d
000000c0: a589 f2ba abc1 57bb b84e 023b 3cb0 cdbc
000000d0: 477b 66bc 9156 bcbb 1c9e a93c c274 573c
000000e0: 7156 3bbe 6f13 84bb 11e3 d9ba c6e8 b1bd
000000f0: ff71 33bc 5eda 55bb 2704 c8be 3290 f5ba
00000100: 5d24 b6bd f703 c5bb bf25 32bb 23b3 eeba
00000110: b538 13bb 8701 07bb 10d8 1dbb 52e0 12bb
00000120: 66d6 12bb 6648 46bd 445d 00bb 2da1 53bc
00000130: 195a aabb 581b c5ba 2dee 22bb c150 77be
00000140: 6297 ceba 4908 abbb fddc 37bd 4b16 b2ba
00000150: b0c0 1abb b6de eaba 4a36 07be 1389 8abd
00000160: afc8 50be 9571 a5ba c207 b4ba 7fe9 9839
00000170: ca3a 9bbd bb91 ddbd 68cc 62be 183c 08bb
00000180: 38a6 d9bd c5fd 05bb ebba d9bd 767b ed3a
00000190: b8ef babd eef2 0abe 501d fa3a 1535 23bb
000001a0: 4612 45bb 1b0f 1abb c493 4abb 1127 30bb
000001b0: b33e 993c 97a4 b2bb 88e4 6bbc 80e9 28bb
000001c0: d9a4 19bb 9106 21bb aad7 4c3b f6fc bdbd
000001d0: 0a5b d3ba cc3e 29be 5aa2 c1bb e659 2abb
000001e0: db2c cd3c 3c93 2ebd 11e8 50bb 2d62 06bc
000001f0: 164a 2dbb eeec 8bbd 8837 e1ba 2a72 15bb
00000200: 093d d6ba a24b c8bd 8060 b3ba ad8d b4bb
00000210: e478 bbba 165b fabb db6e 1bbe ef31 c0ba
00000220: b7d6 53bd 8d3f b7bb d1e5 c939 f8fe c0ba
00000230: fb8f da3b 6e1e cabd 5200 0dbd f384 ccba
00000240: 1c09 9aba b3a8 4cba 9b2e 9eba 0fb9 4cbb
00000250: 69dc 0ebb 9a10 3abb d234 5d3b c7f0 27bb
00000260: 86b5 05be 7f40 01bb 5ee5 4c3d 2f5c 11bb
00000270: 7ca9 debb 9a27 0abc 3087 80bb 3e3d 3d3b
00000280: 1694 4f3d 3afd 20be 3229 11bd 4f89 ebba
00000290: 36a0 ca3b 8da6 373b 6fb9 c4ba 4eda 583e
000002a0: 14c4 073d fe5b 40be c04e 0b3b f604 5bbe
000002b0: 393e 7bbe b87d 913b 0500 8eba 8eb1 f23d
000002c0: 3c63 4dbb 63e0 77bb 7ac7 473b c815 73bd
000002d0: f679 54bd fe80 c7bb 0341 5cbe a6c5 3e3c
000002e0: 459a bcbd cff6 12bb 2fae 0dbb ddb9 87be
000002f0: 6374 44bc 4b4b 46bb 1cb8 adbe 1d3b d7ba
00000300: e6c3 40be 6903 f0bb cf98 35bb cb7a 08bb
00000310: 5267 2dbb 19d7 10bb f820 6dbb fd91 53bb
00000320: 8d52 82bb 7866 94be d345 acb9 fd67 65bd
00000330: c820 edbb b1e0 19bb 70c0 5fbb 8a0f 82bd
00000340: 0e7e e3ba 5e6b 99bb 2fdf 1fbe ac07 e9ba
00000350: c157 a93a edb7 c4ba dffc dfbd e79c 13be
00000360: 0253 c0be ee02 8fba ab10 e7ba 7f12 2b3b
00000370: 72a5 24bd 677f 41bc 2890 923c 9463 33bb
00000380: d3e7 0ebd 7798 30bb 38d0 ebbd b052 163a
00000390: 2ee0 aabc eaa6 fbbd 9cfa f23a 4edc 21bb
000003a0: 0d78 a6bb 9583 f1bb 9a81 7dbb d0e3 0bbb
000003b0: 8958 ba3c 9243 b8ba a60b 8dbe 5115 11bb
000003c0: 70c8 49bb 89ed 24bb 2133 84bb 9482 22be
000003d0: d363 f9ba 8f91 08be b80b 81bb 4a9b 5bbb
000003e0: f201 07be 8a31 1c3c 59a8 f9ba f678 09bc
000003f0: 7ce2 e7ba 6d0e bcbd 4399 daba f959 f8ba
-0.00209561 -0.20533596 -0.0012511252 -0.0044925064 -0.0020675268 -0.006440818 -0.08079739 -0.0016765137
0.004744092 -0.007785457 0.00075606024 -0.0017424953 0.0047659273 0.00043038005 -0.039817244 -0.0010592565
-0.0010060751 0.00412705 -0.0022357437 -0.0023212752 -0.0018520073 -0.004267266 -0.0012524939 -0.0016402474
-0.26630634 -0.0022552486 -0.07165491 -0.0013673144 -0.0077802935 -0.0093737785 -0.005569769 0.0006955712
0.03905567 -0.25486523 -0.19905412 -0.00120943 0.00060523674 -0.00062440196 -0.0013225271 -0.024707174
0.035732117 -0.09462209 0.002397215 -0.345521 -0.17391238 0.0013772661 -0.002670223 0.09112553
-0.0018504156 -0.0032921832 0.0019883346 -0.02510845 -0.014067478 -0.005747624 0.020705275 0.013150396
-0.18294694 -0.004030637 -0.0016623457 -0.08686976 -0.010952472 -0.0032631378 -0.39065668 -0.001873499
-0.088936545 -0.0060124355 -0.0027183143 -0.0018211346 -0.002246422 -0.0020600276 -0.0024085082 -0.0022411537
-0.0022405623 -0.04840889 -0.001958684 -0.012916845 -0.0051987288 -0.0015038056 -0.0024861202 -0.24151899
-0.0015761668 -0.0052194935 -0.044888485 -0.0013586966 -0.0023613386 -0.0017919156 -0.13204303 -0.06764426
-0.20389055 -0.0012622351 -0.0013735222 0.00029165667 -0.075795725 -0.108188115 -0.22148287 -0.0020787772
-0.10627407 -0.0020445448 -0.10631355 0.0018118459 -0.09127754 -0.13569233 0.0019082222 -0.0024903466
-0.0030070706 -0.0023507539 -0.003091083 -0.0026878754 0.018706655 -0.0054517495 -0.014397748 -0.0025773942
-0.0023444204 -0.0024570564 0.0031256475 -0.09276764 -0.0016125154 -0.16527861 -0.0059092464 -0.0025993525
0.025045803 -0.042620882 -0.0031876604 -0.008202118 -0.0026441864 -0.068323 -0.0017182687 -0.0022803643
-0.0016345094 -0.09780051 -0.0013685375 -0.005510053 -0.0014302996 -0.007640253 -0.15179007 -0.0014663319
-0.05171844 -0.0055922926 0.00038508934 -0.0014724424 0.006669996 -0.09869085 -0.034424134 -0.0015603587
-0.0011751982 -0.00078071206 -0.0012068333 -0.0031238233 -0.0021798855 -0.0028391243 0.0033753407 -0.0025625692
-0.13057527 -0.001972228 0.05002343 -0.002218019 -0.0067951065 -0.008432293 -0.0039223656 0.0028875615
0.050678335 -0.15721598 -0.035439678 -0.0017969998 0.0061836494 0.0028022856 -0.0015008877 0.21177027
0.03314598 -0.18785092 0.0021256655 -0.21388611 -0.24535455 0.0044400357 -0.0010833746 0.11850272
-0.0031339666 -0.0037822954 0.0030483888 -0.059346944 -0.051874124 -0.006088375 -0.21509175 0.011643803
-0.09209112 -0.0022424941 -0.0021618714 -0.2650899 -0.011990639 -0.003025728 -0.33929527 -0.0016420815
-0.1882473 -0.0073246253 -0.002770949 -0.0020825143 -0.0026459289 -0.0022100864 -0.003618298 -0.003228306
-0.003977126 -0.28984427 -0.0003285842 -0.056007374 -0.007236574 -0.0023479874 -0.0034141801 -0.0635062
-0.0017356293 -0.0046819886 -0.15612482 -0.0017778776 0.001291983 -0.0015008427 -0.10936903 -0.14415322
-0.3756333 -0.0010910907 -0.0017628869 0.0026103554 -0.040196843 -0.01181016 0.017891005 -0.0027372586
-0.034889054 -0.0026946345 -0.11514324 0.00057343673 -0.02085885 -0.12287696 0.0018537822 -0.0024697962
-0.005080229 -0.007370422 -0.0038681985 -0.0021345504 0.022747295 -0.0014058223 -0.2754795 -0.002213795
-0.0030789636 -0.0025165996 -0.0040344154 -0.15870124 -0.0019026942 -0.13336776 -0.0039381646 -0.0033509308
-0.13184336 0.009533295 -0.0019047364 -0.008390656 -0.0017691399 -0.09182439 -0.0016677756 -0.0018947712

fc_q.bias f4 [2]
00000000: f296 a93d f978 aa3d
0.08280744 0.08323855
