2_Value_Based_Methods/data/model/pred_net_simple.pkl (torch_old, 77031 bytes, 6 tensors)

feature_extraction.0.weight f4 [128, 16]
000000 80 cc 31 bf e6 3d 06 bd ca ea e2 bd 52 3c 0d bf
       -0.6945267 -0.032773875 -0.11079939 -0.55170166
000010 f5 75 be 3c 97 48 8f be 7a 4e ee 3d 7d ee 0d 3e
       0.023249606 -0.2798507 0.11636062 0.13860507
000020 a9 d6 c4 3e b6 c7 81 bd 82 d9 2d be 09 6f a0 be
       0.38445023 -0.0633692 -0.16977504 -0.31334713
000030 21 38 86 3b 53 1a 06 bd 4e dd 74 be 7d 54 e2 3e
       0.0040960466 -0.03273995 -0.23912546 0.44205084
000040 af 6c 39 3e 8a 2f af 3e a7 76 4c be e5 48 56 3e
       0.18107866 0.34215957 -0.19967137 0.20926245
000050 ea b1 2e bf 4b c1 26 bf 3e 43 7f be 22 f1 ec bd
       -0.68240225 -0.6513869 -0.24927995 -0.1156943
000060 60 0e 61 be b9 d9 16 3f 34 3a f6 bd c8 0a a7 be
       -0.2197814 0.5892597 -0.1202282 -0.32625413
000070 94 d2 cf 3e 38 54 ff 3d b6 53 3d be 55 33 11 bf
       0.40590346 0.12467235 -0.18488964 -0.5671895
000080 d8 97 10 bf 12 78 4b bf 0b 43 50 bf 54 ea 47 be
       -0.56481695 -0.7948009 -0.813523 -0.19522983
000090 2c 74 91 be 78 72 33 3f a2 ad 40 3f c8 ea cd 3d
       -0.28408945 0.7009654 0.7526494 0.100545466
0000a0 a9 5c 27 3d bc e9 59 3f d4 37 5d be 23 93 be be
       0.040859852 0.85122275 -0.21603328 -0.3722163
0000b0 5b 7f c6 be f0 4b e1 3e 60 11 59 be a1 e3 ae 3d
       -0.3876904 0.44003248 -0.21198034 0.085395105
0000c0 68 76 3d bf b5 1a a6 be 45 ac 8e be e9 90 35 be
       -0.740088 -0.3244225 -0.27865806 -0.1773106
0000d0 5e 79 ed be 75 bb b0 bd 15 34 1e be b6 02 ff 3e
       -0.46381658 -0.086295046 -0.15449555 0.49806756
0000e0 98 88 3e be 9b 8d 6f 3e f0 6c 11 3e 2a 4c 8c be
       -0.18606794 0.23393862 0.14201713 -0.2740186
0000f0 72 92 5d 3e eb 60 45 bf 4c cb dd be a0 4b 22 be
       0.21637896 -0.7710101 -0.43319166 -0.15849161
000100 03 bd 18 3f f6 3e 5d 3d 49 33 2f 3f 6a 9f 0e bf
       0.5966341 0.054015122 0.6843763 -0.55711997
000110 3a de 8f 3d 9a 34 e1 be 75 ce 40 be 36 1a 0e 3f
       0.07024808 -0.43985444 -0.18828757 0.55508745
000120 4d 4b 77 bf 7b 41 5b be 41 2b 8b 3e e1 e4 9e 3e
       -0.96599275 -0.21411698 0.27181438 0.31033996
000130 6d af c9 3c d5 32 8b be e9 6b 43 3e 34 05 d1 be
       0.024619782 -0.2718722 0.19084133 -0.40824282
000140 04 e5 42 be 58 46 45 bf b2 dd a6 be ba 95 93 bd
       -0.19032675 -0.7706046 -0.32591015 -0.072062925
000150 47 9b 73 be 69 db d0 be c9 27 3d bf d3 6d a4 3d
       -0.23789702 -0.40792397 -0.7388883 0.0802876
000160 cc 37 64 3e b5 54 85 3e db 29 63 bd 7a 2e c8 be
       0.2228691 0.2604119 -0.05545984 -0.3909796
000170 74 23 8d 3c 5f 94 11 bf 0b 50 04 3d 91 d0 88 3e
       0.01722882 -0.5686702 0.032302897 0.26721624
000180 18 eb 00 be 76 b7 be 3e 80 88 ae be 67 c7 f3 3d
       -0.12589681 0.37249345 -0.34088516 0.11903267
000190 88 43 a3 3e 84 2f 5c bf da 8c fa bd 29 8c a6 be
       0.3188746 -0.86010003 -0.122338966 -0.3252881
0001a0 3d 5f 0b 3f 76 c8 dd 3e f8 36 08 3e 87 04 13 bf
       0.544422 0.43317002 0.13302219 -0.57428783
0001b0 6f dc 8f bd cc 21 00 bf b6 09 20 be 8b 4c 16 3e
       -0.07024466 -0.5005157 -0.15628704 0.14677636
0001c0 80 b3 e5 be 2c b1 f1 3d ec 49 f9 3e 0c 30 e9 be
       -0.4486351 0.11801371 0.4868921 -0.4554447
0001d0 2c 90 a5 be 9d c1 8f 3e e8 db 22 bd 50 28 4d 3c
       -0.32336557 0.28077403 -0.0397605 0.012521818
0001e0 d6 76 16 bc 78 5e 42 be 90 0b d1 be 50 6e 38 3e
       -0.009183606 -0.1898135 -0.40829134 0.18010831
0001f0 6c ae a5 3e 7b be d2 3c e5 d6 b2 bc d7 b8 ab 3d
       0.32359636 0.025725594 -0.021830985 0.08384865
000200 c6 b3 f7 bd 40 81 93 be fa df a1 3e 22 72 35 bf
       -0.12094836 -0.28809547 0.31616193 -0.7087728
000210 fe 32 b1 3d 06 6a 84 3e 82 20 ef bd 7a 17 0a be
       0.08652304 0.2586214 -0.11676122 -0.13485518
000220 02 83 b1 3d 08 fd 01 3f 0c 93 49 be 27 de b2 3e
       0.08667566 0.5077672 -0.19685 0.34935114
000230 d3 94 13 bd 6e c6 de 3d e3 2c d9 3c b2 e1 42 be
       -0.0360306 0.10877691 0.026510661 -0.19031408
000240 a1 2e 47 3e ac 11 ad 3d 2a 5f 09 bf 9f 1b b3 bd
       0.19451381 0.08450636 -0.53660834 -0.08745503
000250 03 8a 3f be 4e aa ee bd 2a a1 13 bd 4e 21 ce be
       -0.18704991 -0.11653577 -0.03604237 -0.40259784
000260 b5 ab 2d be 14 58 75 be 68 5b 30 3d f4 b3 95 be
       -0.16960032 -0.2395938 0.04305592 -0.29238856
000270 98 fa 08 bf cd 52 f2 be c3 bf a9 be ea 08 57 be
       -0.53507376 -0.47328797 -0.33154115 -0.20999494
000280 40 fe 76 3e bc 81 69 3e b4 4e 99 be 30 b3 d8 be
       0.24120426 0.22803396 -0.29942858 -0.4232421
000290 5e 2b 17 3e 4f 00 2c 3e 67 c1 31 3e 63 e5 ed be
       0.14762637 0.16796993 0.17358933 -0.4646407
0002a0 25 c7 3b 3e 18 89 16 be da a3 b9 be 3d 69 69 be
       0.18337686 -0.14700735 -0.3625782 -0.22794051
0002b0 e8 07 26 3e 83 81 0a 3d 01 9d 08 3c 0f 9c 01 bf
       0.16213953 0.03381492 0.008338214 -0.5062875
0002c0 e5 5a 5f 3c 8a de c9 be 19 48 45 3e a7 08 b0 be
       0.013632511 -0.39427596 0.19265784 -0.343816
0002d0 3b 72 8e bf 0d 7f b0 3e da c0 1b be 55 79 a5 be
       -1.112861 0.34471932 -0.15210286 -0.32319131
0002e0 bd 08 28 3f 36 3b 08 bf e2 7e c8 bd fd c8 2a 3f
       0.65638334 -0.5321535 -0.09789826 0.66712934
0002f0 0f 93 0f 3d 70 49 e7 be 82 07 0b 3f 34 13 36 3a
       0.035052355 -0.45173216 0.5430833 0.00069456105
000300 46 e7 ae 3e 0f eb 95 3e 25 c3 23 3c a5 b9 fe 3d
       0.34160823 0.29280898 0.009995257 0.12437753
000310 b4 23 b5 bd c3 30 b4 be cc f2 33 bf 60 41 1c be
       -0.088447005 -0.35193452 -0.70292354 -0.15259314
000320 ec ff e8 3e 70 5f 0a be 8a 3f 4d 3e d0 d1 ca 3e
       0.45507753 -0.13512969 0.2004377 0.396132
000330 65 b1 1f be 39 76 60 bd b6 7b 62 be a8 70 13 3e
       -0.15595014 -0.054800246 -0.22117504 0.14398444
000340 97 cc 87 bd cd fd cc 3d c8 6c 3b bd d7 6c 37 3d
       -0.06630819 0.10009346 -0.04575804 0.044781532
000350 51 94 bd 3e 23 df 86 3e 68 31 89 bd 94 6f 34 3f
       0.3702722 0.26342115 -0.066988766 0.70482755
000360 ef cc b4 3d 5b 65 21 3e 5d ad 48 3e a0 4f 1a bd
       0.088281505 0.1576132 0.19597383 -0.037673593
000370 ee 1d cd bc ab fe 8a bf 0b ec 1b be 84 f3 a9 3e
       -0.025038686 -1.0858968 -0.15226762 0.331936
000380 11 32 02 3e 71 2e 01 be d3 fd f9 3e 80 5a 38 3f
       0.12714411 -0.12615372 0.48826465 0.7201309
000390 2d c0 ba 3d 59 41 d2 3e c0 f5 50 3e 2e c8 b4 be
       0.09118686 0.4106548 0.20406246 -0.35308975
0003a0 50 cf 33 3e 13 34 1f bf 95 bd cb 3d ee b2 c7 be
       0.17559552 -0.62188834 0.09948269 -0.390037
0003b0 27 be 9d 3e f9 15 ca 3e 73 9b b4 3e 1b 39 ae 3e
       0.30809137 0.3946989 0.35274848 0.34027943
0003c0 34 ad bd 3e a3 6e c0 be 9d 3e a8 3d 88 78 cb 3d
       0.37046206 -0.3758441 0.082150675 0.09935099
0003d0 e6 00 5c bd 95 f8 86 3e 1e 6b 80 bd 72 50 11 bf
       -0.053711794 0.26361528 -0.06270431 -0.56763375
0003e0 f8 a8 d9 be 09 a5 46 3d 50 46 e6 bd b1 5f c9 be
       -0.42511725 0.048497234 -0.1124388 -0.3933082
0003f0 ee f3 b6 bd 94 1c a6 bd 86 38 86 3e fb a8 c7 be
       -0.08933245 -0.081109196 0.26215 -0.3899611

feature_extraction.0.bias f4 [128]
000000 df 4d 89 3c 2c 87 bd 3c 3a 31 50 bc c8 bf 87 3b
       0.016760765 0.023135744 -0.012707049 0.004142735
000010 f4 ad a1 bc 2f e7 a8 bc bb 32 2b 3c 49 92 4d bc
       -0.019736268 -0.02061805 0.010449107 -0.012547084
000020 42 f0 95 3b f1 26 34 3d 25 ae 1e bd 50 5d 0d bb
       0.00457576 0.04398245 -0.038740296 -0.002157051
000030 51 d1 6d bd 04 8d 09 bc be 70 81 3c f1 10 ae 3c
       -0.058060948 -0.008395437 0.01580083 0.021248313
000040 51 0f a4 bc 70 51 f4 bc 30 b3 2d 3c cb d7 0f 3c
       -0.020026835 -0.029823989 0.010601804 0.008779476
000050 83 33 f0 bc 36 7c e7 3b e7 29 15 3d 54 f8 a8 3b
       -0.029321438 0.0070643676 0.036416914 0.005156556
000060 8c f7 61 bc 31 65 42 bd 31 84 09 bc 9e 04 05 bc
       -0.01379193 -0.047459785 -0.008393333 -0.008118777
000070 b7 fa 78 3c fc ec 99 bb 2f b4 ad 3c 34 57 4c 3a
       0.015196494 -0.00469744 0.021204082 0.00077949767
000080 1f a3 14 bc ad 18 97 3d 73 46 9d bb db 02 9f bc
       -0.009072094 0.073777534 -0.004799658 -0.019410541
000090 30 dd d1 bc a2 d9 61 bc 29 8d 0c bd e0 98 14 bb
       -0.025618166 -0.013784798 -0.03431431 -0.0022674128
0000a0 6b 9d 1e bd 63 e9 47 bb 51 06 c9 3c d2 d1 6c 3a
       -0.038724344 -0.00305041 0.024539145 0.0009033951
0000b0 15 48 3d 3c 99 47 f0 bb 5e 2a 42 bd 77 e1 cc 3c
       0.01155283 -0.007332754 -0.047403686 0.025009854
0000c0 43 55 cb bc 58 58 78 3b c0 d9 f0 bb 30 7a b4 3b
       -0.02482093 0.0037894454 -0.0073501766 0.00550773
0000d0 5c e3 b1 bc e4 cc 00 3c c8 df cd bc 2b 1f 25 3c
       -0.021714859 0.00786135 -0.025131121 0.010078232
0000e0 d5 82 9f bd 10 3a 61 3c 09 64 80 3d 07 f0 00 3d
       -0.07788626 0.013746753 0.0626908 0.031478908
0000f0 92 24 98 bd 15 13 da 3b 89 8a b4 3b 25 25 42 3c
       -0.0742885 0.006655107 0.0055096787 0.011849676
000100 66 39 a7 bb fd 28 31 39 7b 6f 1c bb 4e ef 02 bc
       -0.005103278 0.00016895305 -0.0023870158 -0.007991625
000110 2a a5 04 bd 6d f4 68 bd ab 99 96 bb 64 7c f6 bc
       -0.032384075 -0.056873728 -0.0045959554 -0.030088611
000120 32 78 f2 3c c6 05 d9 bc ff 5f 61 bd b2 90 5d 3d
       0.02959833 -0.02649201 -0.05502319 0.05409307
000130 ef b6 b6 bc e6 b7 8a bd e8 94 07 3c 9f df 0e 3b
       -0.022304026 -0.06773357 0.008275248 0.002180077
000140 15 d1 82 bd b0 95 1f bc b2 83 97 bc 36 4c 05 bd
       -0.063875355 -0.009740278 -0.018495414 -0.032543384
000150 da 7c 38 bc ab 3f 6d bb ab 3a dd bb cf c9 58 3c
       -0.011260236 -0.003620128 -0.0067513785 0.013231709
000160 fd cb 91 3c 29 2a 01 bd df b6 43 bd 8f 55 29 3d
       0.017797465 -0.031534348 -0.04778182 0.04134136
000170 23 33 81 bc 44 d5 0b bd a2 4a a6 3b 60 3e 2f 3c
       -0.015771454 -0.034138933 0.005074815 0.010696024
000180 64 97 b2 bc 04 91 98 bb f6 31 68 3d 9f 51 89 bb
       -0.021800704 -0.004655959 0.05668827 -0.004190638
000190 c7 da 34 bd 32 fe 34 bd 21 2a c5 bc 76 ff 00 3d
       -0.044153955 -0.044187732 -0.02406794 0.031493627
0001a0 c2 0a 58 3c 68 d3 84 3b 38 87 f0 bb 29 74 06 3d
       0.013186159 0.004053522 -0.007340338 0.032825623
0001b0 ae ac 8a bd bc a9 54 3c 1f ea 7d bd 8c a4 a4 bd
       -0.06771217 0.012979921 -0.061990853 -0.08039197
0001c0 48 f0 ba 3a 92 5a 48 bd 6f d6 d0 3c 4e 45 98 bd
       0.0014262283 -0.0489145 0.025492875 -0.07435094
0001d0 dc f6 65 bd d3 31 07 3d 1c c8 89 3c a3 c3 68 bc
       -0.056143627 0.0330065 0.016819052 -0.0142068
0001e0 48 f6 87 bc 87 c4 91 bb 8d 83 d1 3c 29 0c 15 bd
       -0.016596928 -0.0044484767 0.025575424 -0.03638855
0001f0 4b 33 02 bc e1 2b 6a bc 64 91 53 3b e9 6c 38 3c
       -0.0079467995 -0.014292688 0.0032282704 0.011256435

feature_extraction.2.weight f4 [128, 128]
000000 af c7 ef bd 96 09 9c bc 5f 8e 9c bd b4 d5 6b 3e
       -0.117080085 -0.01904754 -0.07644343 0.2303074
000010 b7 ca 3e 3c 7f 55 c1 3d 40 00 95 3c e0 ad 48 3c
       0.011645011 0.09440135 0.018188596 0.012248486
000020 b5 d5 f2 bd 48 a3 4f 3a a9 05 7c bd ed f4 84 3b
       -0.11857168 0.0007920754 -0.061528835 0.0040575177
000030 45 c6 f2 bc 64 c8 a3 bd 15 0e 77 3e 2a 1f 07 bd
       -0.029635558 -0.07997206 0.24126466 -0.032988705
000040 b8 e1 d1 3d d5 00 a0 bd f1 8a 86 3d 99 64 87 3e
       0.102481306 -0.07812659 0.0656947 0.26443937
000050 4b fc 3d 3e af 5e a6 bc cc 6b cd 3d d9 b9 1d 3e
       0.18553273 -0.02030882 0.10030326 0.15402927
000060 9a 71 2e be 7b 1b 65 3d f7 e4 9d be e4 a2 18 3c
       -0.17035523 0.05593441 -0.3083875 0.00931618
000070 78 29 d0 3d b9 38 eb 3d 5b fc c3 3d 69 58 32 be
       0.101641595 0.11485428 0.09569617 -0.17416538
000080 d1 18 d9 3d c7 1d 3e 3d ef 5b 87 3e b3 a5 03 be
       0.106004365 0.046415117 0.26437327 -0.12856178
000090 d2 a2 0f 3d 42 2c 42 3e 07 af 47 bd f4 03 fe bd
       0.035067387 0.18962196 -0.048750903 -0.12403098
0000a0 e3 09 d7 bd 6e e0 46 3e b4 77 d2 3d 8b 96 ea bd
       -0.104999326 0.1942155 0.10276738 -0.11454495
0000b0 f1 27 4a 3d 3f 2f de bd 72 60 93 3c a2 df cc 3c
       0.049354497 -0.10848855 0.017990325 0.02500898
0000c0 9a 07 78 bd 57 b8 b2 bb 9b e1 02 be bf 0c de bd
       -0.060554124 -0.005454104 -0.12781374 -0.10842275
0000d0 d1 e2 3b 3d 73 e8 3b be ae 73 59 bc 87 fb 2a 3d
       0.045870606 -0.18350391 -0.013272209 0.04174378
0000e0 2f 6e 45 bd 0a 28 f4 bc 7b 02 7d 3e 44 d1 e2 3d
       -0.048200782 -0.029804248 0.24707977 0.110750705
0000f0 4b b5 38 be e1 f2 ba 3e dc f0 ae 3d b6 e1 6e 3e
       -0.18037908 0.36513427 0.08542034 0.2332829
000100 f6 9c d4 bd da 9b 6e 3c 2a 66 58 bb fa 89 02 bd
       -0.103815004 0.014563525 -0.003301988 -0.031869866
000110 cb 69 8c be ca 9e 88 bd 39 39 a7 3d 04 29 0f be
       -0.27424464 -0.066709116 0.08165211 -0.1398049
000120 c7 50 2b 3e 06 2f 32 bd 97 c2 71 bd e8 59 8b 3e
       0.16730033 -0.043501876 -0.059023466 0.2721703
000130 6a f6 71 be 24 40 b6 bd 86 3a bf 3d 0f 91 6b 3d
       -0.23629156 -0.088989526 0.09337334 0.057511386
000140 33 69 77 3d f8 68 33 3e 6e cf 11 3c 77 fb f0 bc
       0.06040306 0.17520511 0.008899553 -0.029416783
000150 85 d9 f9 3c 93 ce 4f bd 38 12 a8 3b df e4 37 3d
       0.03049923 -0.050734114 0.005129125 0.044896003
000160 9a a3 9c bd 46 95 1b 3d af b1 28 bc 96 e9 77 3c
       -0.07648392 0.037984155 -0.010296269 0.015131375
000170 9f 84 0c 3e 68 73 e9 bd fb db 2a be 88 ef 53 3d
       0.13722466 -0.11398965 -0.16685478 0.051742107
000180 33 f7 ea bd da a0 a5 be 9c a6 69 bd ff 7c 3c 3e
       -0.11472931 -0.32349283 -0.057043657 0.18407057
000190 ac 8d d3 bd 41 c4 d9 bd 06 07 0e 3d 6a 11 86 be
       -0.10329756 -0.106331356 0.034674667 -0.2618516
0001a0 27 52 8f 3e c3 68 0c be 02 5c 10 3e f2 5b c2 3d
       0.27992365 -0.13711838 0.14097598 0.094901934
0001b0 bb 71 a8 3d 91 b6 d0 3d 1f 79 68 bd ca 1f 50 3e
       0.08224817 0.10191072 -0.056756135 0.20324627
0001c0 df 73 1d 3e 86 a1 16 be 46 48 75 3c 70 04 a3 3d
       0.15376233 -0.14710054 0.014970845 0.07959831
0001d0 49 6e 4f bd af be f2 bd c2 b0 97 3e 90 09 1d be
       -0.050642285 -0.11852776 0.29627043 -0.15335679
0001e0 f1 08 a3 3b 8c a2 56 bd aa 15 00 be e7 52 53 be
       0.004975431 -0.05240111 -0.12508264 -0.20637093
0001f0 ca 19 c2 3d c3 f1 21 3e 2e e0 e4 bd 34 44 c2 bc
       0.09477575 0.15814881 -0.111755714 -0.023714162
000200 ff 4a 8d 3d c8 bd 56 3e e1 d9 27 be 1d c0 92 bd
       0.0689907 0.20970833 -0.16391708 -0.07165549
000210 05 64 c1 3d 4e b0 c3 bd d4 35 1c 3e 9a 00 14 3d
       0.09442905 -0.09555112 0.15254909 0.036133386
000220 de a9 4a be 0f 6e 58 be 86 a6 1e bc 30 93 78 bd
       -0.19791362 -0.21135734 -0.009683257 -0.060687244
000230 22 b1 0f bd b0 55 01 3e 83 7e 2c 3e eb ef 76 bb
       -0.035081036 0.12630343 0.16845135 -0.0037679623
000240 03 b7 60 bc 61 3b 84 3d 73 59 2d 3e 31 e0 21 3d
       -0.013715508 0.06456638 0.16928653 0.039520446
000250 02 23 e4 bc da e4 b1 bb 0f 16 d8 3d 87 99 a3 3e
       -0.027848724 -0.0054288926 0.10551082 0.3195307
000260 0a 8c 88 3e 95 de 78 3d f5 02 34 3d 4b c6 56 3e
       0.2666934 0.060759146 0.043948133 0.2097408
000270 af ec 75 bd 53 23 df bd 4a 1a 68 bb ad 77 11 3d
       -0.060040172 -0.108954094 -0.003541606 0.035514522
000280 10 40 95 be a1 95 c8 bd cb c6 ba bd 73 5f 37 3d
       -0.29150438 -0.097941644 -0.09119948 0.04476876
000290 eb fa 49 3d 46 1c 89 3c ca 12 59 3e ed 42 3e be
       0.04931156 0.016737115 0.21198574 -0.18580218
0002a0 b2 4e c9 bd bd af 0d be 75 2d f0 3d 50 44 07 3d
       -0.09829463 -0.1383657 0.1172742 0.033024132
0002b0 70 da 23 3e 34 30 f2 bd 80 66 e0 3d c4 dc 04 be
       0.16001296 -0.118256 0.1095705 -0.1297484
0002c0 b4 7c e1 bd 66 e8 d9 bd d1 9d ee 3d c6 0b 8c be
       -0.11010113 -0.106400296 0.11651195 -0.27352732
0002d0 86 39 52 bd 7a 70 28 be d0 99 14 be 7a 48 98 bd
       -0.05132439 -0.16449156 -0.145118 -0.07435699
0002e0 d9 df e8 bd 52 af a2 3d 06 d5 fa 3d c0 bd 11 3c
       -0.113708206 0.07943596 0.12247662 0.008895338
0002f0 1f 22 89 3d d8 1a 16 bd 80 c7 e9 bd 8f fa df bb
       0.06695961 -0.036646694 -0.11415005 -0.006835289
000300 49 51 3e 3e 32 db 14 be f8 4d 11 be 39 a6 10 be
       0.18585695 -0.14536741 -0.14189899 -0.14125909
000310 4b 97 26 be a0 ab 30 bd d6 8b da 3c 8d ef 22 3d
       -0.16268651 -0.043132424 0.026678007 0.039779235
000320 ac bd 3d bd 5a 2b 2c 3d 19 b2 4d bd 73 05 b7 3d
       -0.046323463 0.04203353 -0.050218675 0.08936586
000330 0d 23 8c bd de bc 79 be 55 9f f7 bd 2b cd 28 be
       -0.06842623 -0.24388453 -0.12090937 -0.16484515
000340 d7 c8 46 3c 25 8e 83 be 58 e4 d6 3b 54 2e bd bc
       0.012132845 -0.25694385 0.0065579824 -0.02309338
000350 c2 46 54 3e c8 f8 7d bc 76 0f 0d 3d d8 0a f4 3d
       0.20730117 -0.015501209 0.034438573 0.11916131
000360 c9 ff 11 3e ce 63 e5 bd b6 08 53 be 64 19 b6 3d
       0.1425773 -0.11200677 -0.20608792 0.088915616
000370 15 77 16 be ed 92 01 be 74 8f ce 3d e7 76 93 3d
       -0.14693864 -0.12653704 0.10085955 0.07200413
000380 14 0d 3a be 2d 8e 08 be 0d 38 44 be db a8 dc bd
       -0.18169051 -0.13335486 -0.19162007 -0.10774394
000390 86 9a 1f 3e 52 07 cc 3d 9f a5 4e be d8 de 56 3d
       0.1558629 0.09962334 -0.20180367 0.052458614
0003a0 b2 b9 c3 3d 43 4a 91 be f3 80 02 be 9b c0 b8 bd
       0.09556903 -0.2837697 -0.12744503 -0.090211116
0003b0 76 5e dd bc 80 7b 34 3e c8 b4 e0 bc 0e 98 c4 bd
       -0.027022582 0.17625237 -0.027429953 -0.09599315
0003c0 87 b7 4d 3d f3 20 35 3e 70 88 e2 bc a0 01 85 be
       0.050223853 0.1768835 -0.02765295 -0.25977802
0003d0 22 40 d6 3d 1b d3 2f 3e 0c 1e 60 be 0c 50 53 be
       0.10461451 0.17170374 -0.21886462 -0.20636004
0003e0 65 32 7c bd 74 27 07 bd 57 cb 34 3e 1d b7 02 3e
       -0.061571497 -0.03299661 0.17655693 0.12765165
0003f0 38 7b ca 3c 5a 34 f1 3d 36 4c 01 3e cf a3 1b 3e
       0.024716958 0.117775634 0.12626728 0.15199207

feature_extraction.2.bias f4 [128]
000000 f1 96 55 bc e2 d8 e9 3c ed 4c 6b bc b6 ed 0f bb
       -0.0130364755 0.0285458 -0.014361602 -0.0021961755
000010 7b 89 9a 3c 18 bb 0b 3c a7 ae 56 3b b9 e2 8b bc
       0.018864384 0.008528493 0.003275791 -0.017075883
000020 d8 45 94 3c 92 ca 41 3d da 27 19 bd d0 91 65 3c
       0.01809971 0.047312327 -0.03739152 0.014011815
000030 e3 06 a6 3c b5 40 97 ba 1b 99 d3 3b 03 1f a5 bc
       0.020266956 -0.001153967 0.0064574606 -0.02015639
000040 ec 31 62 bb 9c f6 65 3b af dc 0a bd c9 51 d6 bb
       -0.003451462 0.0035089618 -0.033901867 -0.0065405113
000050 7c 7a 0d bd 2f 84 14 bd dc 60 e0 bc 9f f4 61 ba
       -0.03454064 -0.036258873 -0.027389936 -0.000861952
000060 34 cf 6c bc ee f4 09 3d 13 6a 50 ba ca ef 20 3d
       -0.014453698 0.03368085 -0.00079503766 0.03929118
000070 48 2e 8a 3d d6 39 8d 3c 98 97 1d 3e 4f d4 13 bd
       0.06747109 0.017239492 0.1538986 -0.036091145
000080 0b 77 b6 bc 7b aa c5 bc d5 10 93 bc 4b 39 0f bd
       -0.022273561 -0.024129143 -0.017952362 -0.03496675
000090 c8 9f aa 3c ff c3 28 bd 7b 33 c3 3b 93 f3 e6 3c
       0.020828143 -0.04120254 0.0059570647 0.028192317
0000a0 ac 08 15 3d 5c 29 b7 bb dd 4e 60 bc 8c e5 23 3d
       0.036385223 -0.005589647 -0.0136906775 0.040013835
0000b0 e3 28 91 3c 87 8e 11 3c 1b e3 25 bd 97 86 c7 3c
       0.017719692 0.008884079 -0.040499788 0.02435617
0000c0 e9 52 e9 3c 90 6d 6d 3c 7b c6 79 bb 87 cb e5 bc
       0.028481917 0.014491454 -0.0038112688 -0.028051151
0000d0 d4 9c 8c bc fb 4a 14 ba 6b 12 af bc 54 0f f2 bb
       -0.017164625 -0.0005656925 -0.021371087 -0.007387081
0000e0 11 9c 14 bc a5 be cd bc f6 fb 6f 3c 64 59 66 3c
       -0.009070412 -0.02511532 0.0146474745 0.014059398
0000f0 00 b6 fc 3c cf 57 c5 bc ca 14 df bc a7 02 5f bd
       0.030848503 -0.024089722 -0.027231593 -0.05444589
000100 78 07 96 3d 49 5a 92 3c d5 43 52 3c 55 19 04 bd
       0.07325643 0.017865317 0.012833555 -0.03225072
000110 a4 e3 b9 bc 74 43 52 3c 94 a4 16 3d e1 5a fc 3c
       -0.022691555 0.012833465 0.036778048 0.030805053
000120 db 1a 02 3a c1 0a 37 bc 6f d7 75 bc 09 15 64 bc
       0.0004963108 -0.0111719975 -0.015004977 -0.013921031
000130 7d de e9 3c ea 09 f1 3b fb b8 c7 3c 35 96 00 3b
       0.028548473 0.007355918 0.024380198 0.001962078
000140 02 49 03 bc 36 df cd bb e1 5e 0f bd be 22 3f bc
       -0.008013012 -0.0062827123 -0.035002593 -0.011665998
000150 11 f3 93 bc a6 7a b9 bb b2 4e c1 bc 6d d3 bb 3c
       -0.018060239 -0.005660373 -0.023597095 0.022927964
000160 5b 33 f3 ba bf f0 00 3b f1 c2 72 bb 82 11 e2 3c
       -0.0018554734 0.0019674746 -0.0037042464 0.027596239
000170 26 13 97 bc de 3d 97 bb 9c 71 c4 bb 9d 7b 61 3d
       -0.018441748 -0.0046155294 -0.0059949886 0.055049527
000180 10 4e 9c bc 0d e6 a5 bc f8 d6 12 3b 3f 00 05 bd
       -0.019080192 -0.020251298 0.0022405963 -0.032470938
000190 9c 72 0e bd 2f 54 30 3b c2 c2 47 bc db 8c 42 3d
       -0.03477727 0.0026905646 -0.01219243 0.04749761
0001a0 d0 1c 0f bd 1e 23 ae 3d 2e a8 3e bc 77 36 04 bc
       -0.034939587 0.08502792 -0.011636777 -0.008069626
0001b0 b3 5f 15 3d 70 88 30 3c 9b 42 f5 3b 25 f1 04 3d
       0.03646822 0.010774717 0.0074847466 0.032456536
0001c0 9c e8 5e bc 56 7d 73 3a ae bc 03 bb 13 b1 b0 3c
       -0.013605263 0.0009288391 -0.0020101476 0.02156881
0001d0 3e 58 9c bc ee d9 89 bb a2 6e 13 3c 12 f0 25 3d
       -0.019085046 -0.0042068874 0.008998545 0.040512152
0001e0 47 91 dc 3b 3b f6 cd bc 64 0f e3 3c 01 cb 02 3d
       0.0067311856 -0.025141826 0.0277173 0.03193188
0001f0 51 4f 48 bd 05 52 a4 bc ec d7 a0 3c 16 51 03 bd
       -0.048903767 -0.020058641 0.01963421 -0.03205975

fc_q.weight f4 [2, 128]
000000 fb f4 47 3b 97 d5 33 bd ce 62 5e be 59 1a 3a be
       0.003051101 -0.043904867 -0.21717378 -0.18174113
000010 4e 36 ea bd 87 3a 1d be 61 98 50 be c7 fe 27 be
       -0.11436139 -0.15354358 -0.20370628 -0.16405784
000020 28 12 f0 bc b8 e6 8c 3d 3c a1 6b 3d ba 02 20 be
       -0.029305533 0.068799436 0.057526812 -0.1562604
000030 06 40 7f 3e ea 19 8d be 7d 62 f0 3d c7 56 5f bd
       0.24926767 -0.27558833 0.11737535 -0.054526117
000040 c1 e3 cf bd 5b 8b 0f be d9 b2 22 be 29 cc 8e bd
       -0.101508625 -0.14018004 -0.15888537 -0.06972534
000050 ba 63 bf bd 65 c6 0e be 7a c6 f1 bd 66 a9 60 bd
       -0.09345193 -0.13942869 -0.118054345 -0.05484905
000060 4f d4 8b bd 35 97 86 3d e8 6c a2 be 77 f6 5b 3d
       -0.06827604 0.06571809 -0.31723714 0.053701844
000070 25 d5 d6 3d 3d 7b 3b bd 42 f9 5e 3e 6a 28 56 bd
       0.10489873 -0.045771826 0.21774772 -0.052284636
000080 b0 74 3e be ad b2 3d be b2 70 cb 3c 47 7d 19 bd
       -0.185992 -0.1852519 0.02483401 -0.03747299
000090 af fe a2 3d 58 b0 a2 bd 2e 5f 26 38 8e 52 ed 3d
       0.07958733 -0.07943791 3.9666127e-05 0.11588012
0000a0 ff 81 37 3d 3f b5 23 be 31 91 66 be 60 db d6 3d
       0.04480171 -0.15987109 -0.22516324 0.10491061
0000b0 53 49 9b 3d f3 80 26 bd 23 50 d5 bd 7d ae 08 3e
       0.07582345 -0.04065032 -0.104156755 0.13347812
0000c0 c6 6a aa 3e 49 e5 95 bc 6a 87 13 bd 05 2e ae 3d
       0.33284587 -0.018297808 -0.036017813 0.08504871
0000d0 a5 eb 08 bd e9 c8 de bd 57 e6 07 be 8e 2d 0d 3e
       -0.033427853 -0.10878164 -0.13271461 0.13786909
0000e0 4a 0d 7a 3d 37 3d 97 bd 4f 2b f5 3d 66 74 39 3e
       0.06104783 -0.07384723 0.11971151 0.18110809
0000f0 87 d3 61 3e a0 05 d0 3d 8b dc ca 3c ea fa ae bd
       0.22053348 0.10157323 0.024763366 -0.08543952
000100 dd 0c e2 3d ed a0 9f bd 87 fa 5b bd be 60 00 be
       0.1103761 -0.07794366 -0.05370572 -0.12536904
000110 7a 75 da ba e6 92 88 bd 5d 4a 25 3c 58 2a 67 bd
       -0.0016667091 -0.06668644 0.01008853 -0.056436867
000120 90 c0 8a bd 02 6a db 3d 72 82 ca 3c e8 63 29 3e
       -0.0677501 0.10713579 0.024720404 0.16542017
000130 b7 c1 94 3d 05 76 92 3e 9f b6 36 bc ff e7 17 3e
       0.07263511 0.28605667 -0.011151939 0.14834593
000140 e6 af 89 bd b1 da 46 be 99 cf 9d be 64 86 ce bc
       -0.06723003 -0.19419362 -0.30822447 -0.025210567
000150 fc 9b 99 bd e3 72 3b bd 0d 82 42 be 6b 7c 0d 3e
       -0.07500455 -0.04576386 -0.18994923 0.13816993
000160 a4 5c 3a 3e 7c 08 eb 3d 14 d2 44 3e 37 14 5e 3d
       0.18199402 0.11476228 0.19220763 0.054218497
000170 68 ec 9c bd be a3 3e bd 50 75 71 3e 6a 91 90 3d
       -0.076622784 -0.046542875 0.23579907 0.070589855
000180 cb 9b 5f bb d4 23 39 be 4e b5 1c be f9 fa 01 be
       -0.003411996 -0.18080074 -0.15303537 -0.12693395
000190 9c 8d b1 3c 86 45 99 bd 2c ba 2c 3c 1d 71 fb 3c
       0.02167397 -0.07483964 0.010542434 0.030693585
0001a0 b8 48 a8 bd be 6d 9e 3d 85 c3 57 bd d6 0e c8 bd
       -0.08216995 0.077357754 -0.052676696 -0.09768455
0001b0 4a 7d 01 3e d2 a7 ab b8 ef 07 81 bc b2 08 8b 3e
       0.1264545 -8.1851744e-05 -0.015750853 0.27155071
0001c0 94 a2 91 3d 57 3c 50 be b2 c5 82 bd 44 4f ab 3d
       0.071110874 -0.20335518 -0.06385364 0.08364728
0001d0 e9 c1 2b be eb 65 09 be 74 db dd bd 0c 10 0c 3e
       -0.1677319 -0.13417785 -0.10832873 0.13677996
0001e0 e5 e8 ba 3d f2 4e 22 3d ac 7e fa 3d eb bf 32 3c
       0.09126452 0.03962607 0.12231192 0.010910015
0001f0 b1 a3 17 be 88 4a b8 bb ff b5 f8 bd e5 19 fd bd
       -0.14808537 -0.005624119 -0.12144088 -0.123584546
000200 a8 42 18 bd 83 df 0a 3e 65 da 6f bd 4f 8d 76 be
       -0.037172943 0.13561825 -0.058557887 -0.24077342
000210 58 c7 db 3d ef d1 b0 3c 08 73 e5 3d 5b 7f f9 ba
       0.10731381 0.02158448 0.11203581 -0.0019035147
000220 e8 08 3e 3e bc b2 d7 3d 51 2f f9 bd de 69 17 be
       0.18558085 0.10532138 -0.12167228 -0.14786479
000230 38 43 af bd 89 32 00 3e d1 32 72 bd cd dd 8a bd
       -0.08557743 0.12519278 -0.059130494 -0.067805864
000240 b9 0d ae 3d ff 0b 64 3d 60 ce 71 bc 54 60 ca 3c
       0.08498711 0.055675503 -0.014758676 0.024704136
000250 23 36 9e be d2 4a 24 be 09 e1 05 3e 95 b6 5c 3d
       -0.30900678 -0.16044167 0.13074125 0.05388506
000260 df ee 64 3d 48 be 05 bd b5 23 69 3d bb bb 92 3d
       0.055891868 -0.03265217 0.05691882 0.07164713
000270 a2 a7 10 3e 70 ce 41 3e f2 94 7e 3e 88 a7 f7 bc
       0.14126447 0.18926406 0.24861506 -0.030231252
000280 a8 e6 38 3d 0e b1 67 3e 4b e1 ca bd dc 65 37 bc
       0.045141846 0.22626135 -0.099062525 -0.011193719
000290 3a 38 5f 3d 77 f3 47 bd a0 9a 1b 3e 28 0b 32 bb
       0.05449698 -0.04881617 0.15195704 -0.0027167294
0002a0 d4 a1 6b 3c a7 b3 a8 3d 42 7e b3 3c dd 5e 3b 3c
       0.014381845 0.08237391 0.02191079 0.011436191
0002b0 3c a8 4f 3e b2 70 04 be 93 24 cb 3b 1d 80 bc 3d
       0.2027902 -0.12933615 0.0061994283 0.09204123
0002c0 a9 aa 19 bd 8c 35 18 3d 7c 3e be bd 10 f2 98 bd
       -0.03751627 0.03716044 -0.09289262 -0.07468045
0002d0 fa a5 5a 3c 7b 98 5e 3d b4 4a 90 bd 25 52 84 bd
       0.013345236 0.054344635 -0.070454985 -0.0646098
0002e0 02 2b 30 be aa 4c a7 bd bf 97 85 bc bb 70 13 bc
       -0.17203906 -0.081689194 -0.01630771 -0.008999045
0002f0 4d d3 a7 bd cd 18 0f be 50 c9 83 bd 0e f3 86 bd
       -0.08194599 -0.13974304 -0.06434882 -0.06589328
000300 c1 ee e8 3d d9 f9 40 be e2 e7 4c 3e 0e 24 a7 bd
       0.11373664 -0.1884531 0.20010331 -0.08161174
000310 9a 80 63 bd 07 0e 9e 3d ce f7 48 3e fe 27 3c 3e
       -0.055542566 0.07717519 0.1962578 0.18374631
000320 c0 05 07 be 49 40 4b be 6b 99 25 be 17 46 f0 bd
       -0.13185787 -0.19848742 -0.16171806 -0.117321186
000330 3b 61 27 3e 5b 7f c4 bc b5 4e 14 3e af df ad bd
       0.16345684 -0.02398651 0.1448315 -0.0848993
000340 ec 31 12 be 85 70 bc 3d 26 d4 28 3e 72 cb 3a be
       -0.14276856 0.09201149 0.16487178 -0.1824167
000350 43 4c 0e 3e db 70 fb 3c d8 61 14 3e 94 3e 1d 3a
       0.13896279 0.030693462 0.1449045 0.00059983996
000360 bb 91 73 bd 33 44 ba bd 15 bf 20 3d 31 b9 c6 bc
       -0.05946515 -0.09095039 0.03924473 -0.024258228
000370 86 c8 5e ba e5 1a 88 3d d6 50 a4 3d 2a fc 5b bd
       -0.0008498508 0.06645755 0.08023231 -0.05370728
000380 da 69 86 bd b3 a3 7a 3d 4c 79 60 be 5c a7 05 be
       -0.06563158 0.061191272 -0.21921271 -0.13052124
000390 35 de 5e be a6 8b 00 3e d4 7e 8a bd 03 91 78 3e
       -0.21764453 0.12553272 -0.06762472 0.24274068
0003a0 5e 40 aa bd f3 87 62 bd ed ac 0b 3e 1c df 88 3d
       -0.08313058 -0.055305433 0.13640185 0.0668318
0003b0 bf 77 bb bd cc 17 ac 3d b2 d5 06 be ea 9a 96 3d
       -0.09153699 0.084029764 -0.13167456 0.07353766
0003c0 40 22 9e 3d be 1d 4e 3e bf 69 1e bd 05 4e b0 3d
       0.077213764 0.20128533 -0.038675066 0.08608631
0003d0 69 b2 6f bd e9 e7 19 be 6c f8 5f 3e c7 c5 cb 3d
       -0.058519755 -0.15029873 0.21872109 0.099498324
0003e0 2b b5 0d be 41 d1 19 be f5 f0 a5 3d d1 78 2d 3e
       -0.13838641 -0.1502123 0.081025995 0.16940619
0003f0 04 30 84 bd 3d aa e4 bd dd 5b 59 3e fe 95 2e bd
       -0.06454471 -0.11165283 0.2122645 -0.042623512

fc_q.bias f4 [2]
000000 83 66 e5 3c f3 57 0b 3d
       0.028002983 0.03401942
