2_Value_Based_Methods/data/model/target_net.pkl (torch_old, 77031 bytes, 6 tensors)

feature_extraction.0.weight f4 [128, 16]
0.24132921 0.31039688 0.11985131 -0.15252773 -0.17366582 -0.42661175 -0.004976103 0.035333198
-0.43145758 0.06312635 -0.25119722 -0.0013481684 0.5840195 0.30005145 0.19625208 0.32937205
-0.023675192 -0.25867206 -0.25567368 -0.68739194 0.17897977 -0.03286008 -0.6945023 0.07207185
0.27877608 -0.36475644 -0.027174292 -0.027354727 0.026759656 -0.0057311077 -0.23839824 0.172081
0.33033916 -0.035097502 -0.09765965 0.5706612 -0.44242325 -0.35691828 -0.033674162 0.68642724
0.39631262 0.16135158 0.226321 -0.4889985 0.47911623 -0.03317925 -0.1970877 -0.25897303
-0.11818257 0.09734579 0.23085386 0.3150275 0.57424086 -0.0432086 0.6733639 -0.25550935
-0.58850795 0.5479147 0.61309206 0.3241937 -0.30283278 0.16128348 0.09567741 0.5749342
0.15362044 0.06215307 -0.6502771 0.016376995 -0.06921754 0.012306481 0.014259933 0.06291291
0.074354485 0.70219815 0.34717974 -0.5432661 0.48137867 0.41269335 0.9072507 -0.12946005
-0.60233796 -0.4944315 -0.48858085 0.43747112 -0.47196823 -0.12548962 -0.3587734 -0.57950956
0.3228536 -0.10443524 -0.16100122 0.07447284 0.45620406 1.4426258 0.5411736 -0.19457714
0.08984071 -0.71792275 -0.23230703 -0.06731752 0.3620051 -0.8225104 -0.40183252 -0.7541742
-0.096997455 0.19992101 -0.24837531 -0.31459463 0.13774177 0.026897512 -0.14544886 -0.35325193
-0.112969995 -0.1346122 -0.24844332 -0.6461149 -0.07079803 0.13797674 0.25027257 -0.15785812
-0.32019812 -0.32153827 -1.0503234 0.28326994 0.7507674 -0.1735992 -0.30155212 0.32540062
-0.07833625 0.61167276 -0.52463526 0.14529373 -0.79244024 0.39173305 0.27697885 0.14491901
-0.22719704 0.0007428572 -0.40128267 -0.076773986 0.41190323 -0.2909837 -0.28337735 0.08518897
0.76034725 -0.45867783 0.25616384 -0.70931256 -0.10813384 -0.38065138 -0.09154268 -0.14326192
-0.093521394 0.26326197 0.15529715 0.2260466 0.1577195 0.27301523 -0.8596813 0.28669572
-0.0982161 0.25828964 -0.18318085 0.07540601 0.080660395 -0.13076985 0.16589603 -0.16465855
0.31546322 0.2034734 0.045982588 -0.22644159 0.22124188 0.19082347 -0.46074373 -0.47299686
0.15258688 -0.11310775 -0.14249898 0.2928765 -0.7523963 0.58411896 -0.4541052 -0.24825355
0.101466686 0.16341542 -0.5954516 -0.6121176 -0.090568356 0.40690398 -0.599219 0.17286772
-0.081736505 0.4619739 -0.23333739 -0.059434667 0.12204889 0.1994756 -0.70003283 0.28562582
0.22943634 0.069100834 0.22810616 -0.23843794 0.24480018 0.040741853 -0.34551343 -0.3491771
0.27993676 0.07013169 0.54165465 -0.16824505 0.01592994 0.0069890255 0.14144748 -0.23928867
-0.018772775 -0.20764634 -0.12740009 0.27552307 0.23485322 0.543302 -0.5330241 0.018465
0.05129403 0.07412884 -0.18828179 -0.070957415 0.067930445 -0.45014367 -0.44326904 -0.18252239
0.06784965 -0.23790075 -0.8337449 0.45501584 0.59344316 -0.20405176 -0.34373748 0.049141344
-0.44349876 0.20160125 -0.20829436 -0.18154302 -0.35422364 0.3204135 -0.51927876 -0.5278036
0.7389187 0.021223223 0.6698808 0.44586453 -0.19164182 0.13783357 0.15999271 -0.19430143
00000000: 011f 773e 57ec 9e3e 9b74 f53d 3b30 1cbe
00000010: 74d5 31be db6c dabe 940e a3bb 8bb9 103d
00000020: 02e8 dcbe 6348 813d ec9c 80be 06b5 b0ba
00000030: 4d82 153f 58a0 993e 4ef6 483e 74a3 a83e
00000040: 7af2 c1bc aa70 84be a9e7 82be ebf8 2fbf
00000050: 7946 373e 4b98 06bd e7ca 31bf 689a 933d
00000060: bdbb 8e3e 5bc1 babe 9f9c debc 0517 e0bc
00000070: 1137 db3c 04cc bbbb ab1e 74be 0036 303e
00000080: 3722 a93e 66c2 0fbd c801 c8bd da16 123f
00000090: 4d85 e2be febd b6be ebed 09bd b2b9 2f3f
000000a0: 7de9 ca3e 5939 253e b1c0 673e 035e fabe
000000b0: b94e f53e f7e6 07bd 5cd1 49be 1d98 84be
000000c0: b409 f2bd 3b5d c73d f464 6c3e 494b a13e
000000d0: 7301 133f 80fb 30bd 9461 2c3f 1fd2 82be
000000e0: 75a8 16bf 2344 0c3f 9af3 1c3f b7fc a53e
000000f0: e60c 9bbe 7f27 253e 85f2 c33d e32e 133f
00000100: ad4e 1d3e 3894 7e3d 8f78 26bf 0c29 863c
00000110: edc1 8dbd 1fa1 493c 7ea2 693c 7cd8 803d
00000120: 2a47 983d 42c3 333f 8bc1 b13e 7d13 0bbf
00000130: 4477 f63e 8b4c d33e 9541 683f 2d91 04be
00000140: d232 1abf 2026 fdbe 4527 fabe 37fc df3e
00000150: d2a5 f1be 5a80 00be 26b1 b7be bd5a 14bf
00000160: 114d a53e 25e2 d5bd 81dd 24be 3785 983d
00000170: 9493 e93e f6a7 b83f 5a8a 0a3f 3b3f 47be
00000180: 68fe b73d c9c9 37bf e5e1 6dbe c5dd 89bd
00000190: bc58 b93e 0b90 52bf febc cdbe 8f11 41bf
000001a0: 9aa6 c6bd 18b8 4c3e 1956 7ebe 8c12 a1be
000001b0: 2e0c 0d3e 2c58 dc3c 8cf0 14be 70dd b4be
000001c0: d05c e7bd c8d7 09be ed67 7ebe c967 25bf
000001d0: 8ffe 90bd c649 0d3e ba23 803e 8fa5 21be
000001e0: 02f1 a3be aaa0 a4be ff70 86bf c208 913e
000001f0: 4b32 403f fdc3 31be 0a65 9abe e99a a63e
00000200: c16e a0bd 9696 1c3f 7f4e 06bf e1c7 143e
00000210: 5ddd 4abf 3c91 c83e 2cd0 8d3e a665 143e
00000220: 57a6 68be 4ebc 423a ec74 cdbe ae3b 9dbd
00000230: fbe4 d23e d1fb 94be d616 91be 8e77 ae3d
00000240: 1ea6 423f d2d7 eabe e827 833e 8295 35bf
00000250: 4675 ddbd bde4 c2be bb7a bbbd 41b3 12be
00000260: 2588 bfbd 46ca 863e 3706 1f3e c378 673e
00000270: 3881 213e a7c8 8b3e 1314 5cbf c8c9 923e
00000280: 8625 c9bd 8a3e 843e c393 3bbe 776e 9a3d
00000290: 4731 a53d 88e8 05be a6e0 293e 409c 28be
000002a0: 6584 a13e 555b 503e 3d58 3c3d 4ee0 67be
000002b0: 3b8d 623e 3a67 433e 9ae6 ebbe a52c f2be
000002c0: bc3f 1c3e 09a5 e7bd 41eb 11be e9f3 953e
000002d0: 0b9d 40bf d288 153f 7a80 e8be 2e36 7ebe
000002e0: c4cd cf3d 5f56 273e 846f 18bf bdb3 1cbf
000002f0: e77b b9bd b855 d03e 6b66 19bf 3c04 313e
00000300: 7865 a7bd d887 ec3e ffef 6ebe c471 73bd
00000310: c5f4 f93d 5543 4c3e 5a35 33bf 8c3d 923e
00000320: 5cf1 6a3e bd84 8d3d a994 693e 1329 74be
00000330: e6ac 7a3e eee0 263d 23e7 b0be 57c7 b2be
00000340: df53 8f3e 34a1 8f3d e1a9 0a3f 6e48 2cbe
00000350: 817f 823c 3204 e53b 9cd7 103e 1708 75be
00000360: 5dc9 99bc 3ea1 54be 2b75 02be 5c11 8d3e
00000370: 5d7d 703e d715 0b3f 4474 08bf e943 973c
00000380: b019 523d dcd0 973d f1cc 40be 1f52 91bd
00000390: 1e1f 8b3d 3b79 e6be 29f4 e2be 26e7 3abe
000003a0: c2f4 8a3d 419c 73be 4e70 55bf d6f7 e83e
000003b0: e4eb 173f f2f2 50be 5cfe afbe 6f48 493d
000003c0: 4512 e3be 8f70 4e3e 1e4b 55be 6ae6 39be
000003d0: cd5c b5be 3d0d a43e 74ef 04bf 231e 07bf
000003e0: c729 3d3f 53dc ad3c 4f7d 2b3f 5b48 e43e
000003f0: c13d 44be 3e24 0d3e 21d5 233e f4f6 46be

feature_extraction.0.bias f4 [128]
0.06614184 0.11383149 0.14467838 0.010766494 -0.037592355 -0.044979196 -0.088724665 -0.0057478496
-0.02045363 0.073186286 -0.10013306 -0.024093667 -0.046540104 -0.036556777 0.116974965 0.06578451
0.0503912 -0.13630739 0.08531731 0.1344386 0.052503448 -0.10466396 0.033220645 0.13695244
-0.09224859 -0.020451015 -0.14573331 0.12225205 -0.049899988 0.13014628 -0.16873983 0.1756351
0.17915143 -0.06774256 0.12177282 -0.12181715 -0.098130375 -0.02297457 0.016250648 0.09778504
-0.018843882 0.20596305 0.07046051 0.16413699 -0.0779503 0.09097391 0.057317227 -0.17112607
-0.10956601 -0.16289546 -0.09222012 -0.014976505 0.15632261 0.13346326 0.02587553 0.13658845
0.0034415459 -0.10661582 0.22158472 0.17447475 0.0007605328 0.038603473 0.037064996 -0.014754889
0.14876507 -0.02045924 0.046591382 0.16289507 -0.10421657 0.054160297 0.037531983 0.0703133
-0.13211071 -0.068714984 0.19195816 -0.022181211 -0.021893552 0.07170405 0.055749208 0.13938889
-0.03950463 -0.0628893 -0.040362194 -0.016749294 0.059843987 -0.07663619 0.00061050046 0.0804852
0.036470674 -0.11647328 -0.07450401 -0.081509024 0.08628389 0.07380782 0.18548587 -0.024246806
0.067565255 -0.11423901 -0.08507436 0.03190358 -0.13020737 0.20766543 0.11255028 0.054083623
-0.15758266 0.052645758 0.14818172 -0.03278682 0.1470529 0.13575868 0.06461304 0.10841086
0.16926965 -0.021772893 0.12965184 -0.04686029 0.071471505 -0.0033229685 0.19607486 0.16409725
0.0035888397 0.15282723 0.08286884 -0.042400848 0.21378429 0.0998843 -0.110398725 0.020388136
00000000: 5f75 873d 7c20 e93d 9226 143e f365 303c
00000010: 71fa 19bd 1b3c 38bd 47b5 b5bd 7558 bcbb
00000020: 5f8e a7bc b1e2 953d 9012 cdbd 1560 c5bc
00000030: d6a0 3ebd 8fbc 15bd 9290 ef3d 07ba 863d
00000040: 0167 4e3d 2a94 0bbe d8ba ae3d 46aa 093e
00000050: db0d 573d 0f5a d6bd 5f12 083d 433d 0c3e
00000060: d4ec bcbd e388 a7bc 1d3b 15be 485f fa3d
00000070: ee63 4cbd 1145 053e 22ca 2cbe b0d9 333e
00000080: 7973 373e 9cbc 8abd 0764 f93d 457b f9bd
00000090: 94f8 c8bd 2a35 bcbc 1420 853c 8643 c83d
000000a0: 7c5e 9abc fae7 523e 9a4d 903d 8713 283e
000000b0: 68a4 9fbd 8850 ba3d 78c5 6a3d ac3b 2fbe
000000c0: 2564 e0bd 11ce 26be e7dd bcbd 0460 75bc
000000d0: 0913 203e 98aa 083e ebf8 d33c d8dd 0b3e
000000e0: 8f8b 613b 6559 dabd 1be7 623e 82a9 323e
000000f0: 7e5e 473a ad1e 1e3d 77d1 173d 7dbe 71bc
00000100: df55 183e 239a a7bc 9bd6 3e3d f7cd 263e
00000110: 7f6f d5bd 30d7 5d3d 23bb 193d 6b00 903d
00000120: 0848 07be 71ba 8cbd ae90 443e 5fb5 b5bc
00000130: 1b5a b3bc 93d9 923d 4859 643d f6bb 0e3e
00000140: 9bcf 21bd 1bcc 80bd d452 25bd d135 89bc
00000150: f81e 753d 6ff3 9cbd fe09 203a 6dd5 a43d
00000160: 4662 153d 8b89 eebd 8f95 98bd 34ee a6bd
00000170: 9cb5 b03d 8e28 973d 02f0 3d3e 3da1 c6bc
00000180: a75f 8a3d 24f6 e9bd 773b aebd 54ad 023d
00000190: 1555 05be 3fa6 543e c380 e63d ca86 5d3d
000001a0: 595d 21be 14a3 573d f3bc 173e 794b 06bd
000001b0: 0995 163e 5304 0b3e d753 843d 8306 de3d
000001c0: 0655 2d3e 115d b2bc 74c3 043e 93f0 3fbd
000001d0: a75f 923d 29c6 59bb d9c7 483e 1c09 283e
000001e0: bd32 6b3b be7e 1c3e 23b7 a93d 83ac 2dbd
000001f0: 45ea 5a3e 2490 cc3d ba18 e2bd 0505 a73c

feature_extraction.2.weight f4 [128, 128]
-0.10927197 -0.12369586 -0.18530183 -0.26922864 -0.032927234 -0.0873159 -0.0018115134 -0.02772061
0.12872915 -0.041012205 -0.061065577 0.052517395 -0.13492976 0.052952252 0.06727246 -0.046162877
0.047032353 -0.18282364 0.10917584 0.14182563 0.02141846 -0.19178995 0.18280959 0.0158124
-0.09883016 0.0033717733 -0.19387272 -0.16649841 -0.072977975 -0.3291176 0.17290229 -0.1267718
0.009803999 -0.11461577 -0.24198483 -0.13224979 0.22623472 -0.28313053 -0.28166807 -0.051120263
-0.030719776 0.09111517 -0.20484734 0.04236543 0.014524798 0.023409719 0.02732034 -0.068938054
0.011840792 -0.09752574 -0.19193491 0.144491 0.06297861 0.19538012 0.116056375 0.26881674
-0.21199967 0.083483316 0.06196183 0.038642325 0.0405851 0.3104049 -0.053749453 0.19194114
-0.0065312413 -0.10617083 -0.041916996 -0.12963796 -0.0880061 -0.01968917 0.21461447 -0.095797
0.02791985 -0.25738907 0.24518527 0.19284977 -0.0024980386 0.21575423 -0.22126417 -0.13091512
-0.15711208 -0.07809267 0.42831975 0.075516045 -0.008293789 -0.11245085 0.21054658 0.14343679
0.014176641 0.17120871 0.07901793 -0.15746658 -0.07504806 0.20611371 0.1862737 0.25396016
0.1350766 -0.05415062 -0.07536292 0.002870659 0.050751094 0.13569894 -0.06489004 0.035799947
-0.04373263 -0.0610511 0.098077655 0.09016548 0.0072906734 -0.08454273 -0.08678151 0.11035816
-0.13677259 -0.13531913 0.07605021 0.17506064 -0.232148 0.00813345 -0.25084177 -0.0654566
-0.09031886 0.022871902 -0.046258464 -0.106352225 0.25269273 0.16450015 0.19878373 -0.039428197
-0.030930024 -0.02824457 -0.027044632 -0.11021973 -0.21333113 -0.028172923 0.03911491 0.3518575
-0.07301446 -0.08716465 -0.059130367 0.0070115128 0.16144735 -0.11157047 0.09590981 0.189001
0.10117592 -0.05079289 0.20154548 -0.095413566 0.0514176 0.06850681 4.322273e-05 0.24497779
0.12406198 -0.062064476 0.19084352 0.16208535 -0.14367305 -0.22727226 -0.023028664 -0.039045006
0.056384858 0.011108843 -0.029343393 -0.13063546 0.16798142 -0.030674309 0.12057213 -0.003438627
0.035938267 0.001752617 0.13530074 -0.034684785 0.0060507595 -0.1530474 -0.045214567 -0.087256916
-0.1191624 -0.057026718 0.019577278 0.05417098 0.0093348585 -0.12519585 -0.05799705 0.0076260264
0.06354095 0.049448565 -0.03694004 -0.040137447 0.06833131 -0.03830587 -0.18209846 -0.031300213
-0.12388456 0.006726379 -0.06888205 0.17632785 -0.045916997 -0.018754693 0.37675682 0.09711313
0.07881047 -0.05872953 -0.005337598 0.006729036 0.027987 0.016619941 -0.13527644 0.017273113
-0.08181048 -0.020581376 0.060344372 0.1173568 -0.08804636 0.00787897 -0.117151394 0.07019039
0.07423958 0.17498162 0.20031866 0.06453487 -0.11734414 0.25800276 0.097250395 0.0421397
-0.07334574 -0.06251324 -0.061946537 0.2249035 0.06335616 0.051178146 -0.009088217 0.30110368
-0.09576264 0.1418944 0.024903223 -0.09140676 0.054677222 0.059032217 0.21920589 0.020031214
-0.018168721 -0.19346443 0.13673915 0.14682393 -0.13914885 -0.06354264 0.14238098 0.12808803
-0.006733088 0.14881003 -0.064837806 -0.106939875 -0.21522821 0.058637675 -0.11346006 -0.0125784
00000000: fcc9 dfbd 4154 fdbd c3bf 3dbe 56d8 89be
00000010: b5de 06bd aed2 b2bd 4e70 edba 5516 e3bc
00000020: 93d1 033e 6afc 27bd e61f 7abd 7b1c 573d
00000030: 072b 0abe 76e4 583d 25c6 893d 4915 3dbd
00000040: ffa4 403d 1f36 3bbe 9597 df3d bd3a 113e
00000050: c475 af3c 9664 44be 7032 3b3e 0289 813c
00000060: 7867 cabd f8f8 5c3b 9286 46be 8f7e 2abe
00000070: 7a75 95bd 1a82 a8be 4c0d 313e 77d0 01be
00000080: f4a0 203c acbb eabd dfca 77be 7d6c 07be
00000090: 13aa 673e 7cf6 90be cc36 90be 7b63 51bd
000000a0: 0aa8 fbbc 979a ba3d 80c3 51be 6087 2d3d
000000b0: 6bf9 6d3c bdc5 bf3c e8ce df3c 652f 8dbd
000000c0: e2ff 413c 93bb c7bd 968a 44be 73f5 133e
000000d0: eefa 803d ba11 483e f7ae ed3d 59a2 893e
000000e0: 7116 59be 4df9 aa3d b0cb 7d3d 6a47 1e3d
000000f0: 903c 263d 64ed 9e3e 6328 5cbd 388c 443e
00000100: 0604 d6bb 1870 d9bd 28b1 2bbd d0bf 04be
00000110: 8b3c b4bd 2f4b a1bc e5c3 5b3e 3831 c4bd
00000120: 2bb8 e43c 80c8 83be d911 7b3e 697a 453e
00000130: 22b6 23bb adee 5c3e 1393 62be 9d0e 06be
00000140: fde1 20be 0def 9fbd ba4c db3e 28a8 9a3d
00000150: ace2 07bc a24c e6bd 8699 573e 18e1 123e
00000160: 2445 683c 5651 2f3e 27d4 a13d eb3e 21be
00000170: ccb2 99bd 790f 533e 88be 3e3e 1107 823e
00000180: 8551 0a3e 0acd 5dbd e057 9abd ab21 3c3b
00000190: 61e0 4f3d aaf4 0a3e 12e5 84bd f7a2 123d
000001a0: fc20 33bd b810 7abd f0dc c83d aea8 b83d
000001b0: 9ae6 ee3b bd24 adbd 81ba b1bd 7603 e23d
000001c0: 1d0e 0cbe 1991 0abe 36c0 9b3d 1943 333e
000001d0: 35b8 6dbe 2942 053c 556e 80be 1c0e 86bd
000001e0: 18f9 b8bd db5d bb3c 8479 3dbd 32cf d9bd
000001f0: f160 813e ba72 283e f68d 4b3e 767f 21bd
00000200: f660 fdbc 2861 e7bc b48c ddbc e2ba e1bd
00000210: 7a73 5abe e7ca e6bc f536 203d ab26 b43e
00000220: 9b88 95bd 6183 b2bd af32 72bd d5c0 e53b
00000230: 7452 253e 0f7f e4bd 5d6c c43d 7a89 413e
00000240: 5235 cf3d 350c 50bd f061 4e3e 3068 c3bd
00000250: 439b 523d 4c4d 8c3d 0e4a 3538 75db 7a3e
00000260: 3514 fe3d 5237 7ebd 7c6c 433e b4f9 253e
00000270: 071f 13be 0fba 68be 9ca6 bcbc a8ed 1fbd
00000280: cff3 663d dd01 363c 8e61 f0bc 4dc5 05be
00000290: 5203 2c3e b048 fbbc 85ee f63d 975a 61bb
000002a0: 0134 133d 11b8 e53a 478c 0a3e a211 0ebd
000002b0: 7345 c63b 75b8 1cbe e932 39bd c1b3 b2bd
000002c0: 6b0b f4bd d994 69bd 8760 a03c 64e2 5d3d
000002d0: 3cf1 183c 5733 00be 518e 6dbd bfe3 f93b
000002e0: c221 823d 948a 4a3d 704e 17bd 2a67 24bd
000002f0: 49f1 8b3d 9ee6 1cbd 0578 3abe a734 00bd
00000300: 30b7 fdbd f568 dc3b 0812 8dbd 4a8f 343e
00000310: 7613 3cbd 71a3 99bc 45e6 c03e 40e3 c63d
00000320: 6267 a13d 608e 70bd 04e7 aebb 3f7f dc3b
00000330: fe44 e53c 8b26 883c e885 0abe 5880 8d3c
00000340: 418c a7bd 469a a8bc a92b 773d c358 f03d
00000350: a651 b4bd cc16 013c 12ed efbd fbbf 8f3d
00000360: ec0a 983d 622e 333e 5620 4d3e dc2a 843d
00000370: 2052 f0bd f018 843e 372b c73d ae9a 2c3d
00000380: 4b36 96bd f106 80bd a7bb 7dbd 1a4d 663e
00000390: e0c0 813d 2da0 513d bfe6 14bc 432a 9a3e
000003a0: 341f c4bd c44c 113e d801 cc3c 7833 bbbd
000003b0: 39f5 5f3d c4cb 713d 8277 603e 8018 a43c
000003c0: 92d6 94bc 8a1b 46be 5905 0c3e 0359 163e
000003d0: 097d 0ebe a522 82bd 52cc 113e 8229 033e
000003e0: 3ca1 dcbb a861 183e afc9 84bd 4b03 dbbd
000003f0: c964 5cbe 0f2e 703d bf5d e8bd a215 4ebc

feature_extraction.2.bias f4 [128]
-0.012313947 -0.021743579 0.15004197 0.10826777 0.00058542733 0.031080691 -0.0014090944 0.0859533
-0.14723662 -0.014512574 -0.039973475 0.10110664 -0.053064786 0.031877365 0.1422238 -0.019287327
-0.06221916 0.06114004 0.16914397 0.1685083 -0.0010373227 0.10730739 0.19163412 -0.07595987
0.078777775 0.16563362 0.1434175 0.14447156 0.0 -0.009691838 -0.04310774 0.22583804
0.23540711 0.081528984 0.037238374 0.06078972 -0.026398055 -0.102554664 -0.0877748 0.21208729
0.12816386 -0.0033549326 -0.012135156 -0.0020271617 -0.0074191224 -0.0080437185 -0.10052172 0.047084443
-0.032037932 0.03306795 0.008656366 0.061200947 0.10678389 0.11789106 0.090738595 -0.101802655
0.13499418 -0.20028773 0.019755023 0.1784557 -0.014788199 0.07202779 0.1764718 -0.0050185844
-0.09282657 0.069523506 0.14665413 -0.031920288 0.01663926 -0.116133444 -0.02365236 0.08485518
0.1052142 0.06873997 -0.013793099 -0.12788942 -0.04788285 0.0035564082 0.14578393 0.06953833
-0.10813524 0.024714295 0.10401757 0.09906501 -0.16700593 -0.059494704 0.114712164 -0.18051809
0.042023122 -0.17653663 -0.007454985 0.007345623 0.03515542 0.04745236 0.14588241 -0.0021353231
-0.009499466 0.009987617 -0.050006237 0.007978446 -0.05166426 0.20190863 0.1434396 -0.063826144
0.17851964 -0.064976014 0.020270886 -0.124572664 -0.1749924 -0.02719707 0.029232733 -0.04436823
0.094865814 -0.008711414 -0.044227175 0.11103273 0.014377232 0.018281143 -0.09825811 0.13510637
0.04390768 -0.15179726 -0.013841681 -0.023579953 -0.010288127 -0.08292917 0.08686552 0.057240255
00000000: 70c0 49bc 971f b2bc 9aa4 193e 7ebb dd3d
00000010: 5d77 193a ef9c fe3c 5db1 b8ba 4908 b03d
00000020: 32c5 16be 26c6 6dbc 3abb 23bd 0011 cf3d
00000030: 765a 59bd d791 023d 1ea3 113e 7500 9ebc
00000040: 85d9 7ebd fb6d 7a3d 1434 2d3e 718d 2c3e
00000050: c6f6 87ba fac3 db3d bc3b 443e d990 9bbd
00000060: 3e56 a13d dc9b 293e 0adc 123e 5af0 133e
00000070: 0000 0000 84ca 1ebc be91 30bd 1642 673e
00000080: 900e 713e abf8 a63d 4487 183d a4fe 783d
00000090: bc40 d8bc 2e08 d2bd 46c3 b3bd 692d 593e
000000a0: 633d 033e 6ede 5bbb 89d2 46bc 21da 04bb
000000b0: 1c1c f3bb cdc9 03bc 55de cdbd 9edb 403d
000000c0: 353a 03bd 4272 073d 6ed3 0d3c d8ad 7a3d
000000d0: 83b1 da3d de70 f13d 28d5 b93d e97d d0bd
000000e0: ea3b 0a3e 3a18 4dbe 49d5 a13c 17bd 363e
000000f0: 344a 72bc 4e83 933d 06b5 343e f072 a4bb
00000100: db1b bebd 5762 8e3d 802c 163e d9be 02bd
00000110: 0f4f 883c 5fd7 edbd 98c2 c1bc 8dc8 ad3d
00000120: 8b7a d73d 8bc7 8c3d 73fc 61bc 72f5 02be
00000130: cf20 44bd a112 693b 6248 153e 1d6a 8e3d
00000140: 0276 ddbd a275 ca3c 2a07 d53d 99e2 ca3d
00000150: 9a03 2bbe b8b0 73bd 36ee ea3d bcd9 38be
00000160: 7020 2c3d 05c6 34be f248 f4bb 8db3 f03b
00000170: 21ff 0f3d 685d 423d 3362 153e c7f0 0bbb
00000180: a6a3 1bbc 1aa3 233c 57d3 4cbd 07b8 023c
00000190: e79d 53bd 23c1 4e3e d5e1 123e 48b7 82bd
000001a0: dacd 363e 2512 85bd 210f a63c f41f ffbd
000001b0: 3531 33be 64cc debc 7c79 ef3c 76bb 35bd
000001c0: 0249 c23d 52ba 0ebc 8e27 35bd 2165 e33d
000001d0: 7b8e 6b3c 56c2 953c 8c3b c9bd 5359 0a3e
000001e0: 8ad8 333d be70 1bbe 38c8 62bc bf2a c1bc
000001f0: 888f 28bc c5d6 a9bd 8de6 b13d c274 6a3d

fc_q.weight f4 [2, 128]
-0.07169678 0.11779791 0.13146017 0.29797643 -0.085607775 -0.15776002 -0.020350305 0.045817263
-0.040860616 0.13821262 -0.14128603 0.1279603 -0.09660094 0.011824816 0.000969699 -0.046211746
-0.25120097 -0.00271425 0.112737834 0.07654785 0.16432741 0.2280075 0.099382356 -0.15395862
0.11566829 0.06229871 -0.0002464256 0.14447537 0.0071481564 -0.22202209 -0.14769194 0.3407885
0.2426634 0.2567391 0.1750254 0.149371 -0.13822083 -0.1253769 0.036216654 0.1655384
0.16161814 -0.15344031 -0.1328317 -0.21202667 -0.18609446 -0.32903445 0.008691899 0.074207686
-0.09899125 -0.0734834 0.13246913 -0.0643333 0.21670873 0.20317908 0.011690729 -0.21792178
-0.009788175 -0.22686093 -0.17315882 0.15283547 -0.17352226 0.33845186 0.41961107 -0.13326947
-0.40482238 -0.12271041 0.121665776 -0.16424939 -0.0438161 -0.16634484 -0.10392299 0.08587783
-0.11550815 -0.16252942 -0.28300753 -0.19402097 -0.1591864 -0.12752536 0.023825431 0.12897655
-0.107041776 -0.32772073 0.25426298 0.27270398 0.016294962 -0.00439215 0.16136633 -0.08345306
0.0022270856 -0.060713522 0.048103467 -0.14773788 0.18612532 0.00030811125 0.11003049 -0.2722849
-0.044354357 -0.25512126 -0.04939544 -0.109871335 -0.13588203 0.1493769 -0.0070671467 -0.081461325
0.14476304 -0.25611326 -0.20317979 -0.18651767 -0.040189344 -0.4059079 -0.054581225 0.07811614
0.06930395 -0.13032076 -0.013593629 -0.12538375 -0.028184203 -0.07757318 0.025032453 0.08478338
0.03864487 -0.12118583 -0.16085497 -0.07731268 -0.14412703 -0.08857225 0.11971016 0.27648592
-0.24180396 -0.17008016 0.13225162 0.09136487 0.066484556 0.19900951 -0.21824278 0.058879834
-0.13616936 -0.19044882 -0.1437507 0.05121567 -0.09784497 -0.0050594234 0.24786144 -0.084859446
0.07111891 0.22406295 0.20275529 0.20369563 -0.16886091 0.0579287 0.27204418 -0.047940906
-0.006148186 0.1543152 0.10441178 0.10911751 0.11641442 0.07356744 0.089736156 0.22087935
0.36683467 -0.00949463 -0.09128845 0.10913835 0.005190019 -0.03802422 -0.0960681 0.15640748
0.08423613 -0.009848326 0.054164264 0.09536573 0.04395693 0.15640183 -0.053764403 0.15369074
0.005617147 0.1227403 -0.15281205 0.06647868 0.053622216 0.20697202 0.18395709 -0.112221956
0.16236266 -0.20962206 0.107176945 0.17981277 0.000541068 -0.017570846 0.21352032 0.06678055
-0.062390834 0.2009371 0.250253 -0.016783293 0.117698535 -0.07224298 0.02063179 0.35744375
0.10924171 0.08519644 -0.11667907 -0.09014632 -0.2001672 0.11869577 0.10900418 0.0087971715
-0.02732726 -0.07588535 0.18377349 0.050361678 -0.15725419 -0.15247114 0.027368857 -0.27741367
-0.19055308 -0.2179887 -0.1588207 0.12206706 -0.092598796 -0.2748035 0.11006595 0.21068111
-0.09251021 0.044535756 -0.034509774 -0.2298286 -0.052524734 0.17441802 0.07885357 -0.021267543
0.18740776 0.0919088 -0.25956687 -0.15309405 -0.08969571 -0.07080271 0.042995125 -0.18837129
-0.024569413 -0.0955789 0.014045363 0.14080228 0.024065753 -0.02706719 -0.06729429 0.05524784
0.014058595 -0.24483147 -0.11474367 -0.007683812 -0.18653634 -0.053762544 0.02703113 -0.113709226
00000000: c3d5 92bd 0840 f13d 7f9d 063e 5e90 983e
00000010: 2153 afbd d88b 21be afb5 a6bc e2aa 3b3d
00000020: 765d 27bd 9c87 0d3e 49ad 10be 0608 033e
00000030: b7d6 c5bd e0bc 413c 6633 7e3a 8748 3dbd
00000040: 6a9d 80be 8fe1 31bb 18e3 e63d 1fc5 9c3d
00000050: 7245 283e cc7a 693e fa88 cb3d 54a7 1dbe
00000060: 7fe3 ec3d ef2c 7f3d af32 81b9 5af1 133e
00000070: 153b ea3b c259 63be 8e3c 17be d57b ae3e
00000080: c17c 783e 4f73 833e dc39 333e b6f4 183e
00000090: c389 0dbe cd62 00be ea57 143d e682 293e
000000a0: 3a7f 253e 751f 1dbe 0805 08be 851d 59be
000000b0: 8c8f 3ebe 3477 a8be 7768 0e3c 33fa 973d
000000c0: edbb cabd 777e 96bd fda5 073e 2dc1 83bd
000000d0: e5e8 5d3e 2d0e 503e 798a 3f3c e326 5fbe
000000e0: 955e 20bc 3b4e 68be 8c50 31be e780 1c3e
000000f0: d2af 31be 9049 ad3e 43d7 d63e cb77 08be
00000100: e144 cfbe 984f fbbd e82b f93d fe30 28be
00000110: 8378 33bd 4d56 2abe 94d5 d4bd b7e0 af3d
00000120: 898f ecbd 1d6e 26be 5de6 90be 6fad 46be
00000130: c201 23be 0296 02be 8d2d c33c 6e12 043e
00000140: b838 dbbd 03cb a7be c22e 823e db9f 8b3e
00000150: 037d 853c 06ec 8fbb 373d 253e 70e9 aabd
00000160: 4cf4 113b beae 78bd 2408 453d 9948 17be
00000170: a397 3e3e fe89 a139 aa57 e13d ed68 8bbe
00000180: eaac 35bd 419f 82be df52 4abd 3904 e1bd
00000190: a924 0bbe 42f6 183e 8693 e7bb 32d5 a6bd
000001a0: c33c 143e 4721 83be 5d0e 50be 7dfe 3ebe
000001b0: 959d 24bd 29d3 cfbe 9090 5fbd 5bfb 9f3d
000001c0: 3bef 8d3d ce72 05be d0b7 5ebc 9964 00be
000001d0: 8fe2 e6bc b0de 9ebd dc10 cd3c e9a2 ad3d
000001e0: 154a 1e3d 4730 f8bd 2ab7 24be 1c56 9ebd
000001f0: 0996 13be 5e65 b5bd 9a2a f53d 908f 8d3e
00000200: 759b 77be 7e29 2ebe f86c 073e 811d bb3d
00000210: 0e29 883d 26c9 4b3e 097b 5fbe fb2b 713d
00000220: fb6f 0bbe 0405 43be 6233 13be 86c7 513d
00000230: f262 c8bd 85c9 a5bb 64cf 7d3e caca adbd
00000240: cba6 913d c270 653e 159f 4f3e 9695 503e
00000250: e0e9 2cbe a546 6d3d 6049 8b3e af5d 44bd
00000260: b976 c9bb ce04 1e3e d8d5 d53d 0079 df3d
00000270: af6a ee3d 87aa 963d 97c7 b73d 322e 623e
00000280: c1d1 bb3e 5d8f 1bbc 70f5 babd ed83 df3d
00000290: 0911 aa3b 49bf 1bbd 5abf c4bd 4829 203e
000002a0: fe83 ac3d e05a 21bc 59db 5d3d 1c4f c33d
000002b0: 2f0c 343d cd27 203e 1038 5cbd 1b61 1d3e
000002c0: 0b10 b83b 445f fb3d c37a 1cbe f925 883d
000002d0: f8a2 5b3d 79f0 533e 3f5f 3c3e a0d4 e5bd
000002e0: 6642 263e 2aa7 56be 967f db3d d720 383e
000002f0: 75d6 0d3a bcf0 8fbc 12a5 5a3e 3ec4 883d
00000300: 888d 7fbd 75c2 4d3e 2921 803e 1e7d 89bc
00000310: ee0b f13d 21f4 93bd 0004 a93c de02 b73e
00000320: 1eba df3d 797b ae3d 70f5 eebd a29e b8bd
00000330: a1f8 4cbe c516 f33d 953d df3d 0322 103c
00000340: 6bdd dfbc c769 9bbd 1e2f 3c3e 0c48 4e3d
00000350: 3e07 21be 6521 1cbe a734 e03c 2a09 8ebe
00000360: 5920 43be 6e38 5fbe e5a1 22be 4bfe f93d
00000370: 70a4 bdbd 0bb3 8cbe 426a e13d cabc 573e
00000380: fe75 bdbd 206b 363d 1f5a 0dbd 3058 6bbe
00000390: 2d24 57bd a39a 323e fb7d a13d 4539 aebc
000003a0: d2e7 3f3e ae3a bc3d f3e5 84be b0c4 1cbe
000003b0: 62b2 b7bd 0301 91bd a81b 303d 67e4 40be
000003c0: cb45 c9bc dfbe c3bd 861e 663c 792e 103e
000003d0: 8b25 c53c 03bc ddbc 97d1 89bd 8f4b 623d
000003e0: 0556 663c 1ab5 7abe bbfe eabd 7dc8 fbbb
000003f0: 6203 3fbe 1d36 5cbd 6370 dd3c 62e0 e8bd

fc_q.bias f4 [2]
0.08693576 0.14024663
00000000: 600b b23d d09c 0f3e
